ppo_modeLLBS.pth (torch, 224522 bytes, 15 tensors)

features.0.weight f4 [256, 15]
0	0x3d6e2cd4	0.05814822
1	0xbdc46e5d	-0.095913626
2	0xbce2a811	-0.027668031
3	0xbdc82f82	-0.097746864
4	0x3dd4a717	0.10383432
5	0xbe04935d	-0.1294684
6	0xbe2f0572	-0.17091921
7	0xbe39a848	-0.181306
8	0xbe2b921a	-0.16754952
9	0x3da143cf	0.078742616
10	0xbe602e4f	-0.21892665
11	0xbdd79cd2	-0.10527958
12	0xbc85c446	-0.016328942
13	0xbdf116d8	-0.11771935
14	0x3e6c1b60	0.23057318
15	0xbe63377b	-0.22189133
16	0x3e4b5469	0.19856419
17	0xbe8302cb	-0.25588068
18	0x3d822b9e	0.063559756
19	0xbe1ac085	-0.15112503
20	0x3d284eb7	0.041090693
21	0x3e377171	0.17914368
22	0xbd89666f	-0.06708991
23	0x3e189109	0.14899077
24	0x3e246b21	0.16056491
25	0xbdecb74c	-0.115583986
26	0xbcadbdba	-0.021208633
27	0xbd3d2b02	-0.046183594
28	0xbd5398ff	-0.05165958
29	0x3e101f31	0.14074399
30	0xbcd39240	-0.025826573
31	0x3e6dbde4	0.23216969
32	0x3af92e12	0.0019010922
33	0xbe3b4506	-0.18288049
34	0xbd48100e	-0.048843436
35	0xbdfe7ff7	-0.12426751
36	0x3c30e9d6	0.010797938
37	0x3e1adc04	0.15122992
38	0xbe80ba7a	-0.2514227
39	0xbeaf5a63	-0.34248647
40	0x3e3a49a1	0.1819215
41	0xbe7358d7	-0.23764358
42	0x3eede5dc	0.4646443
43	0xbf32d600	-0.6985779
44	0xbe97e779	-0.29668787
45	0x3e3abaad	0.18235274
46	0xb95587ce	-0.00020363854
47	0xbe403973	-0.18771915
48	0xbcde2cc3	-0.027120953
49	0xbdb7d2d4	-0.08975759
50	0x3e2c125e	0.16803882
51	0xbddfb539	-0.10923237
52	0xbd1b4dfb	-0.037916165
53	0x3e325b49	0.17417635
54	0xbe01b2f1	-0.12665917
55	0x3e07a761	0.13247444
56	0xbe3f7bac	-0.18699521
57	0xbe3ef2ff	-0.18647383
58	0xbce803af	-0.028322069
59	0x3e1d3c35	0.15354998
60	0x3b4f6129	0.0031643605
61	0x3f20fdec	0.62887454
62	0x3ea73fa2	0.32665735
63	0x3c192bf3	0.009348857
64	0xbd2576ac	-0.040396377
65	0x3d1d6c21	0.038433198
66	0xbd883dda	-0.06652422
67	0x3d679995	0.05654295
68	0x3e052e98	0.13006055
69	0x3d8650d6	0.06558387
70	0x3f705fb0	0.9389601
71	0xbdf08039	-0.117432065
72	0x3f817705	1.0114447
73	0xbf26c103	-0.6513826
74	0xbdee13ed	-0.11624894
75	0x3dbe71b6	0.092990324
76	0xbe36cd97	-0.17851864
77	0xbe540bd5	-0.20707639
78	0xbd140edb	-0.03614698
79	0x3e4452f2	0.19172266
80	0xbddf538f	-0.109046094
81	0xbdbb6e15	-0.09151856
82	0xbde6e464	-0.11274031
83	0xbdbc7756	-0.09202449
84	0x3d212670	0.039343297
85	0x3e12b8f5	0.14328368
86	0x3d8c436a	0.06848796
87	0x3e804b18	0.25057292
88	0x3c882a14	0.016621627
89	0xbe008941	-0.12552358
90	0xbe99c8e6	-0.30036086
91	0xbeb93105	-0.3617021
92	0xbdacb194	-0.08432308
93	0xbddba4b9	-0.10724778
94	0x3c7753c4	0.015095655
95	0xbcf324f1	-0.029680701
96	0xbe97eeed	-0.29674473
97	0x3da9c518	0.08289546
98	0xbc1a35ab	-0.0094122095
99	0xbde21a83	-0.11040213
100	0xbf4c9729	-0.7991815
101	0x3e52c45b	0.20582716
102	0xbed9eff8	-0.42565894
103	0x3f662507	0.8990025
104	0x3bd58eec	0.0065172818
105	0x3e20cc8d	0.1570303
106	0xbd12dbdb	-0.0358542
107	0xbd26fa81	-0.040766243
108	0xbe5ae03e	-0.21374604
109	0x3ddddde6	0.108333394
110	0xbe4b8ef7	-0.19878756
111	0x3dddec64	0.108361036
112	0xbe586085	-0.2113057
113	0xbe225915	-0.15854295
114	0x3cea1e8c	0.028579019
115	0x3de24dbf	0.11049985
116	0x3e5366cb	0.20644681
117	0xbdfd3133	-0.123629
118	0xbe3cc3ee	-0.18434116
119	0xbe6f00fb	-0.23340218
120	0xbcb4432d	-0.022004688
121	0xbe77ec52	-0.24211243
122	0xbe65f152	-0.22455338
123	0xbe5b93b5	-0.21443065
124	0x3d964d23	0.073389314
125	0x3ddbd8a5	0.10734681
126	0x3dc33ed1	0.09533466
127	0xbe4daec2	-0.20086196
128	0xbd50ccc9	-0.05097655
129	0xbe003ae8	-0.12522471
130	0xbe49ea3d	-0.19718261
131	0x3d968cc4	0.07351068
132	0xbde024ed	-0.10944543
133	0x3e42b209	0.19013228
134	0x3d9643bf	0.0733714
135	0x3e7440fa	0.23852912
136	0xbe146ed7	-0.14495407
137	0x3e02bd3c	0.127675
138	0xbe7a57b9	-0.24447526
139	0xbc6e7d52	-0.014556246
140	0xbda6bbf9	-0.08141322
141	0xbdc99ce0	-0.09844375
142	0xbe833880	-0.25629044
143	0xbdff10de	-0.12454389
144	0xbde36701	-0.11103631
145	0xbe6e1c3b	-0.23252957
146	0x3e82aa6b	0.25520644
147	0x3cf2ea4c	0.029652737
148	0x3d83a644	0.06428197
149	0xbda39180	-0.07986736
150	0xbe8a4e34	-0.2701279
151	0xbf4eda00	-0.8080139
152	0xbe84e602	-0.25956732
153	0xbe4af7c6	-0.1982108
154	0xbe03f75f	-0.12887333
155	0xbd0d3fae	-0.034484558
156	0x3e763d38	0.2404679
157	0x3d1c471d	0.038153756
158	0xbd453495	-0.04814585
159	0x3e5db6a3	0.21651702
160	0xbf0dce91	-0.5539332
161	0xbd8b01ab	-0.067874275
162	0xbf482d31	-0.78193957
163	0x3f4a5afe	0.79045093
164	0x3d9362d5	0.07196585
165	0x3dacc253	0.08435502
166	0x3e4ab921	0.19797184
167	0xbe0476ea	-0.12935987
168	0xbeb2a233	-0.34889373
169	0x3dc12fe5	0.09432963
170	0x3de6c797	0.112685375
171	0x3c479f69	0.012184002
172	0x3d3512b5	0.044207294
173	0xbdf1a024	-0.117981225
174	0xbdc06a78	-0.09395307
175	0xbed77822	-0.42083842
176	0xbe922ce7	-0.28549883
177	0x3e15be93	0.1462348
178	0x3bce8a24	0.0063030887
179	0x3d93a53a	0.07209249
180	0x3dbe7274	0.09299174
181	0x3f610f74	0.87914205
182	0x3dddb00c	0.10824594
183	0x3d2469dc	0.040140018
184	0xbd9a353b	-0.07529684
185	0x3e8d6bde	0.2762136
186	0xbd143ea4	-0.03619255
187	0x3ceccbfc	0.028905861
188	0xbe225f5a	-0.15856686
189	0x3e0075a6	0.1254488
190	0x3f43b8d0	0.76453876
191	0x3e7d6c9d	0.24748464
192	0x3f8a587d	1.0808254
193	0xbf765f9e	-0.9623965
194	0x3cefcfd8	0.029273912
195	0x3d77a8de	0.06046378
196	0x3d994090	0.074830174
197	0xbdec24a3	-0.115304254
198	0x3e51c8f5	0.20486815
199	0xbcf82417	-0.030290646
200	0x3e4f5872	0.20248583
201	0xbe431314	-0.19050246
202	0xbdb3a831	-0.08772314
203	0x3e24536b	0.16047446
204	0xbd2b5e06	-0.041837715
205	0xbe0b67ba	-0.13613787
206	0xbe771198	-0.24127805
207	0x3e135b22	0.14390233
208	0xbe33c9b8	-0.17557418
209	0xbe1dcfd3	-0.1541131
210	0xbdf0c762	-0.11756779
211	0x3f2d0553	0.6758625
212	0x3e6d12d9	0.23151721
213	0xbea150cf	-0.31506965
214	0x3e496929	0.19669022
215	0x3e4928c8	0.19644463
216	0xbe86a009	-0.26293972
217	0x3dc863a5	0.09784631
218	0xbe748480	-0.2387867
219	0xbe66e65d	-0.22548814
220	0x3f634c0a	0.887879
221	0xbe0c5206	-0.13703164
222	0x3f5e087a	0.86731684
223	0xbf4e1e2d	-0.80514795
224	0x3e46fb1b	0.19431727
225	0xbe3f40a8	-0.18677008
226	0x3da19059	0.0788886
227	0x3dec18b2	0.11528148
228	0xbe57ad6d	-0.2106225
229	0x3d017650	0.031606972
230	0xbe15dde1	-0.14635421
231	0x3e28e851	0.16494872
232	0xbe0e5405	-0.13899238
233	0xbdc49eae	-0.09600578
234	0x3e044717	0.12917744
235	0x3bc545e5	0.006020295
236	0xbd9d309a	-0.07675286
237	0x3e3d89e4	0.18509632
238	0xbd6808f2	-0.056649156
239	0x3e7e17cc	0.24813765
240	0xbdd1002d	-0.10205112
241	0x3e05e57f	0.13075827
242	0x3d9d82e2	0.076909795
243	0xbeea7232	-0.4579025
244	0x3dff8e68	0.12478334
245	0xbe1ba654	-0.15200168
246	0xbcbc7247	-0.02300371
247	0x3d20e44a	0.039280213
248	0x3d8f0500	0.069833755
249	0x3dc4727c	0.09592149
250	0x3ea21a47	0.31660673
251	0xbd9a3fe9	-0.07531721
252	0x3ed6df62	0.41967303
253	0xbefc7bbd	-0.49313155
254	0x3d65fd8f	0.056150015
255	0xbc20b060	-0.009807676

features.0.bias f4 [256]
0	0x3e4eb757	0.20187126
1	0xbbdbf277	-0.0067122537
2	0xbe58ddd0	-0.21178365
3	0x3e31864a	0.17336383
4	0x3d97a464	0.07404402
5	0xbe731072	-0.23736742
6	0x3dac9f79	0.084288545
7	0xbe00b6c1	-0.12569715
8	0x3dc8d5d2	0.09806408
9	0x3d31bd19	0.04339323
10	0x3dcdc762	0.10047795
11	0x3e8538c6	0.26019877
12	0xbebe7e13	-0.37205562
13	0x3e8342d0	0.2563691
14	0x3dce5328	0.100744545
15	0x3e4b4c62	0.19853356
16	0xbda648b2	-0.08119334
17	0x3e585258	0.21125162
18	0xbd48ca15	-0.049020845
19	0x3d447c7a	0.047970273
20	0xbb49d61a	-0.003079778
21	0x3ddcee39	0.10787625
22	0xbe1e5a2d	-0.15464087
23	0xbe4e0a67	-0.20121156
24	0x3e34aeb1	0.17644764
25	0xbbf82ff0	-0.007574074
26	0x3d8b27cc	0.067947
27	0xbe7d22cd	-0.24720307
28	0x3dd4e7f1	0.10395802
29	0x3d92a25b	0.07159873
30	0x3cf3237d	0.029680008
31	0xbe97e657	-0.29667923
32	0x3d28afab	0.041183155
33	0x3e83eb26	0.25765342
34	0x3dfce241	0.12347842
35	0x3c521fdd	0.01282498
36	0x3e552dfb	0.20818321
37	0xbe01fbf0	-0.12693763
38	0xbd8698bd	-0.06572101
39	0xbe161226	-0.1465536
40	0xbd6a7026	-0.05723586
41	0xbe45ba0e	-0.19309255
42	0x3e829e4e	0.25511402
43	0xbeb1f477	-0.34756824
44	0xbe62df2c	-0.22155446
45	0xbd1adbaf	-0.037807163
46	0xbd8bdd8f	-0.06829368
47	0xbd971d6d	-0.073786594
48	0xb95f7cf4	-0.00021313486
49	0xbe47f039	-0.19525231
50	0x3bc82689	0.0061081094
51	0xbcedd764	-0.02903337
52	0xbce389fe	-0.02777576
53	0xbe6630bc	-0.22479528
54	0x3e68fa12	0.22751644
55	0xbe4f96f7	-0.20272432
56	0x3e41c8a8	0.189242
57	0xbe638cb7	-0.22221647
58	0x3d969e00	0.07354355
59	0x3dec8a12	0.11549772
60	0xbdf8e05e	-0.1215217
61	0x3cb40ac3	0.021977788
62	0xbdab3370	-0.0835942
63	0xbe73bba9	-0.23802055
64	0xbcfb26c8	-0.03065814
65	0xbeb133e5	-0.34609905
66	0xbe4232e6	-0.18964729
67	0xbe23049e	-0.1591973
68	0xbd4dab0c	-0.05021195
69	0x3d40eb2b	0.047099274
70	0xbdbe36c2	-0.09287788
71	0x3d8e0ea3	0.069363855
72	0xbddd3460	-0.10801005
73	0xbe408d82	-0.18803981
74	0x3dd315a3	0.10306861
75	0x3dbfa3a9	0.093573876
76	0xbca78a63	-0.02045173
77	0x3da27baa	0.07933743
78	0x3e2175fb	0.15767662
79	0x3e0f7e88	0.14013112
80	0xbe2e8657	-0.17043434
81	0xbe7c5150	-0.24640393
82	0x3da254c9	0.07926328
83	0x3ccb702a	0.024833757
84	0xbe857793	-0.2606779
85	0xbcf6663d	-0.030078048
86	0xbe64607e	-0.22302434
87	0x3d3778fb	0.04479311
88	0x3e9770bb	0.29578194
89	0xbe58c08e	-0.21167204
90	0xbe2d2ddc	-0.16912025
91	0x3d6ffa3b	0.058588248
92	0x3e23eb97	0.16007839
93	0xbc51234e	-0.012764765
94	0xbd5adc30	-0.053432643
95	0xbccd3346	-0.025048863
96	0xbdebb40c	-0.115089506
97	0xbe184d7c	-0.14873308
98	0x3d3de929	0.046364937
99	0xbe0b274e	-0.13589212
100	0xbce8543e	-0.028360482
101	0x3e960ddd	0.29307452
102	0xbea0bb56	-0.31392926
103	0xbcfd8505	-0.030947218
104	0x3e74aba1	0.23893596
105	0xbd9376c2	-0.07200386
106	0xbd4723f7	-0.048618283
107	0xbe88eab3	-0.2674156
108	0xbe49af8a	-0.19695869
109	0x3e442044	0.19152933
110	0x3e84271a	0.25811082
111	0xbdc74656	-0.097302124
112	0x3e7c1166	0.24616012
113	0x3d4ac69b	0.04950581
114	0xbd221da7	-0.03957906
115	0xbe1a5975	-0.15073188
116	0xbe37355a	-0.17891446
117	0xbe3fbb25	-0.18723734
118	0x3dc78d2f	0.097437255
119	0xbd52b520	-0.051442266
120	0x3d883f56	0.06652705
121	0xbe83f395	-0.25771776
122	0xbdaf3813	-0.08555617
123	0x3dc6e329	0.09711296
124	0xbeac22d5	-0.33620325
125	0x3e4bf7ef	0.19918798
126	0x3ec9b617	0.39396736
127	0xbe817e5c	-0.25291717
128	0xbeab90b1	-0.33508828
129	0xbde8fac4	-0.11375955
130	0xbb6525c1	-0.003496513
131	0x3c86f94d	0.016476298
132	0x3bc7ae58	0.0060937814
133	0x3e44b0e5	0.19208105
134	0xbe350d1f	-0.17680787
135	0x3ea97802	0.3309937
136	0xbdd52cfe	-0.10408972
137	0xbc954713	-0.018222367
138	0x3b2b18ac	0.0026107235
139	0xbe63a83d	-0.22232147
140	0xbe0473a1	-0.12934734
141	0xbe2a4d8f	-0.16631149
142	0x3e4e40b4	0.2014187
143	0x3e019a02	0.12656406
144	0xbceae7d1	-0.028674992
145	0x3e5461b1	0.20740391
146	0x3dee020a	0.11621483
147	0xbe523d2c	-0.20531148
148	0x3c1e13af	0.009648248
149	0x3ce7ffbf	0.028320191
150	0xbe6722fb	-0.22571938
151	0x3e000df8	0.12505329
152	0x3c5d7605	0.013516908
153	0x3d91f9f3	0.07127752
154	0x3c7d249b	0.015450622
155	0xbe44365a	-0.19161358
156	0xbe9ca815	-0.30596986
157	0x3e83fa11	0.25776723
158	0xbe134398	-0.14381254
159	0xbe63ea36	-0.22257313
160	0xbd8d931d	-0.06912825
161	0xbd3e8c52	-0.04652054
162	0xbdd5e098	-0.104432285
163	0xbe4e77e4	-0.20162922
164	0xbe12b165	-0.14325483
165	0xbe13ea10	-0.14444757
166	0xbde3159c	-0.11088106
167	0xbe70768d	-0.23482724
168	0x3e0e4e5c	0.13897079
169	0xbe4264ee	-0.18983814
170	0x3e065f69	0.13122334
171	0xbe236b84	-0.15958983
172	0xbc893db4	-0.016753055
173	0x3e4dbe53	0.20092134
174	0xbbc42854	-0.005986253
175	0xbd934e0a	-0.07192619
176	0x3e7e8e87	0.24859057
177	0x3dc82979	0.09773535
178	0xbe319aea	-0.17344251
179	0x3e08a284	0.13343245
180	0x3e5816b7	0.21102415
181	0x3e5864cb	0.211322
182	0xbdc15490	-0.09439957
183	0xbdef26dd	-0.116773345
184	0xbeb8fc65	-0.36130062
185	0x3e54a144	0.20764643
186	0xbd31a884	-0.0433736
187	0xbe7ca69c	-0.24672931
188	0xbe1a4727	-0.15066205
189	0xbd9f5463	-0.07779767
190	0xbe382977	-0.17984568
191	0x3e423797	0.18966518
192	0x3e11747f	0.14204596
193	0x3e5768bb	0.21036045
194	0x3d36e9a4	0.04465641
195	0xbe10bb2e	-0.14133903
196	0xbdc49700	-0.095991135
197	0x3e779602	0.24178317
198	0x3e341186	0.1758481
199	0x3e0497f7	0.12948595
200	0x3d72d852	0.05928833
201	0xbccf6333	-0.025315857
202	0x3e513c09	0.20433058
203	0xbdedbda4	-0.11608437
204	0xbe62b6fb	-0.22140114
205	0xbe80bd68	-0.25144506
206	0xbb3cdf25	-0.0028819528
207	0x3e3de980	0.18546104
208	0xbd4377f2	-0.04772181
209	0x3e66c810	0.22537255
210	0xbe046bd4	-0.12931758
211	0xbdce2f00	-0.10067558
212	0xbe2075ca	-0.15669933
213	0xbdf52c64	-0.119713575
214	0x3dbb18af	0.091355674
215	0x3e0697b2	0.13143805
216	0xbd4297a2	-0.04750789
217	0x3c9d3e3d	0.019194717
218	0x3dca2664	0.09870604
219	0x3e310f65	0.17291029
220	0xbd83354c	-0.0640665
221	0x3e4816db	0.19539969
222	0xbe278130	-0.16357875
223	0xbd89626f	-0.06708228
224	0xbe08d0d7	-0.13360916
225	0xbed23ca3	-0.41061887
226	0xbd537d6c	-0.051633283
227	0x3e141130	0.14459682
228	0xbcd7d369	-0.026345925
229	0x3e982a92	0.2971998
230	0xbdb500c2	-0.08838035
231	0xbebe9f8a	-0.37231094
232	0xbcee541a	-0.029092837
233	0xbe05f723	-0.13082556
234	0xbea8b837	-0.32953045
235	0xbd158cf7	-0.036511388
236	0x3e1dc450	0.15406919
237	0x3db6d91e	0.089281306
238	0x3e63b69d	0.2223763
239	0x3dd38bb2	0.10329379
240	0x3e1c81b9	0.1528386
241	0x3e66d3c7	0.22541724
242	0x3e627167	0.22113572
243	0x3e5ff024	0.2186895
244	0xbeafd66e	-0.34343284
245	0xbdc03fe3	-0.093871854
246	0x3b9496e5	0.0045345896
247	0xbe9713fe	-0.2950744
248	0xbe30b197	-0.17255245
249	0x3dbf3c02	0.093376175
250	0xbe5951da	-0.2122263
251	0x3dd480e7	0.10376149
252	0xbe0c78b6	-0.13717923
253	0xbe3f4678	-0.18679225
254	0x3d2f7ebc	0.042845473
255	0xbd73adb1	-0.059491817

features.2.weight f4 [256]
0	0x3f704752	0.93858826
1	0x3f72a4e3	0.9478285
2	0x3f717063	0.94312114
3	0x3f701ae5	0.9379104
4	0x3f97aef0	1.1850262
5	0x3f7247a1	0.9464055
6	0x3f7e101c	0.9924333
7	0x3f6b705d	0.9196833
8	0x3f75f39e	0.96074855
9	0x3f6bcd26	0.92109907
10	0x3f84a834	1.0363832
11	0x3f84fc94	1.0389581
12	0x3f7fe16a	0.9995333
13	0x3f70ea3c	0.94107413
14	0x3f84760d	1.0348526
15	0x3f6d0100	0.9257965
16	0x3f85c28c	1.0449996
17	0x3f70734f	0.93925947
18	0x3f6eb8bc	0.9325063
19	0x3f829c78	1.0204
20	0x3f77253a	0.9654118
21	0x3f737958	0.9510703
22	0x3f6d7173	0.92751235
23	0x3f700c40	0.9376869
24	0x3f7cff6c	0.9882724
25	0x3f736b14	0.95085263
26	0x3f70609f	0.9389743
27	0x3f737282	0.950966
28	0x3f94fe78	1.1640158
29	0x3f72a53c	0.9478338
30	0x3f73b4b1	0.9519759
31	0x3f89fe2d	1.0780693
32	0x3f71cfd5	0.9445775
33	0x3fa15c6e	1.2606332
34	0x3f717301	0.9431611
35	0x3f6daebd	0.92844754
36	0x3f6d3cbe	0.9267081
37	0x3f72d439	0.94855076
38	0x3f6d2bd1	0.92644984
39	0x3f9b95a3	1.215504
40	0x3f8111f2	1.0083601
41	0x3f78796f	0.9706029
42	0x3f88776f	1.0661448
43	0x3f7a5785	0.97789794
44	0x3f7ad0dd	0.9797495
45	0x3f9129c5	1.1340872
46	0x3f72e380	0.9487839
47	0x3f8a4c4b	1.0804533
48	0x3fa8b0c0	1.317894
49	0x3f7c9a2d	0.98672754
50	0x3f6f18bb	0.9339711
51	0x3f716619	0.94296414
52	0x3f6b6010	0.91943455
53	0x3f94e80c	1.1633315
54	0x3f6a1bb7	0.9144854
55	0x3f74aad7	0.9557318
56	0x3f73f49c	0.9529512
57	0x3f73e93e	0.95277774
58	0x3f715969	0.94277054
59	0x3f830469	1.0235721
60	0x3f73d37b	0.9524457
61	0x3f706945	0.9391063
62	0x3f6b010f	0.9179849
63	0x3f92f784	1.1481786
64	0x3f80ca6a	1.0061772
65	0x3f82e452	1.0225928
66	0x3f75ca3c	0.9601171
67	0x3f743946	0.9539989
68	0x3f6c64b2	0.9234115
69	0x3f7a3c86	0.977486
70	0x3f911ad9	1.1336318
71	0x3f7012ce	0.93778694
72	0x3f6da4d7	0.9282965
73	0x3f708f93	0.93969077
74	0x3f71dda6	0.94478834
75	0x3f7016d6	0.93784845
76	0x3f6e4c91	0.9308558
77	0x3f6b81b0	0.9199476
78	0x3f73339c	0.95000625
79	0x3f85562c	1.0416923
80	0x3f6b1a9c	0.9183748
81	0x3f7815b0	0.9690809
82	0x3f7faaf8	0.9987025
83	0x3f9b8c19	1.215213
84	0x3f7275b9	0.9471088
85	0x3f79cae7	0.9757523
86	0x3f708954	0.93959546
87	0x3f9aae61	1.2084466
88	0x3f866026	1.0498092
89	0x3f721c97	0.94574875
90	0x3f767246	0.9626812
91	0x3f6a50d2	0.9152957
92	0x3f8670ba	1.0503151
93	0x3f7cd40b	0.9876105
94	0x3f77bf9f	0.96776766
95	0x3f7702e6	0.964888
96	0x3f6e3fac	0.93065906
97	0x3f734399	0.9502502
98	0x3f966199	1.1748534
99	0x3f715b60	0.9428005
100	0x3f724442	0.94635403
101	0x3f8b6a38	1.089179
102	0x3f7516aa	0.9573771
103	0x3f7e393a	0.9930607
104	0x3f66a00e	0.90087974
105	0x3f6e8ae1	0.9318066
106	0x3f86fbac	1.0545554
107	0x3f82eb9a	1.022815
108	0x3f6c74bb	0.92365617
109	0x3f757d86	0.9589466
110	0x3f6c1ff6	0.9223627
111	0x3f8087fd	1.00415
112	0x3f749add	0.955488
113	0x3f98d46b	1.1939825
114	0x3f7b61d7	0.98196167
115	0x3f722d04	0.9459994
116	0x3f72b375	0.9480508
117	0x3f76e61e	0.9644488
118	0x3f73c05b	0.95215386
119	0x3f7de1c9	0.99172646
120	0x3f77ade4	0.9674971
121	0x3f706c12	0.939149
122	0x3f711baf	0.94182867
123	0x3f6e08ab	0.92981976
124	0x3f7ce7c3	0.9879114
125	0x3f70909f	0.93970674
126	0x3f812a5e	1.0091054
127	0x3f705c72	0.9389106
128	0x3f8094ae	1.0045373
129	0x3f701f44	0.9379771
130	0x3f6c6e7b	0.9235608
131	0x3f862cfc	1.0482478
132	0x3f78c990	0.9718256
133	0x3f7b588a	0.98181975
134	0x3f6ffde3	0.93746775
135	0x3f809ae4	1.0047269
136	0x3f8e7efd	1.1132504
137	0x3f70aaff	0.9401092
138	0x3f92400d	1.1425797
139	0x3f6d7e20	0.92770576
140	0x3f727ab0	0.94718456
141	0x3f72e658	0.94882727
142	0x3f715490	0.9426966
143	0x3f715dd4	0.94283795
144	0x3f62eb6f	0.88640493
145	0x3f6ba2a9	0.92045075
146	0x3f74acf0	0.9557638
147	0x3f7d88ca	0.9903685
148	0x3f7ac4b9	0.97956425
149	0x3f72bbff	0.9481811
150	0x3f6a7c50	0.91595936
151	0x3f778725	0.9669059
152	0x3f6ed66c	0.9329593
153	0x3f6b625b	0.91946954
154	0x3f84f35d	1.0386769
155	0x3f6e1952	0.93007386
156	0x3f955ef1	1.1669599
157	0x3f7c63ad	0.98589593
158	0x3f6d69e6	0.92739713
159	0x3f7595db	0.95931786
160	0x3f74a9ae	0.9557141
161	0x3f71023c	0.94144034
162	0x3f82a5ae	1.0206811
163	0x3f7592fc	0.95927405
164	0x3f961ae1	1.1726953
165	0x3f72e2fe	0.9487761
166	0x3f707e8c	0.93943095
167	0x3f6fbe43	0.9364969
168	0x3f779efd	0.9672697
169	0x3f6b9ed3	0.9203922
170	0x3f6bfeab	0.9218547
171	0x3f702e03	0.9382021
172	0x3f6b3539	0.91878086
173	0x3f6a7643	0.91586703
174	0x3f71f702	0.9451753
175	0x3f747cd3	0.95502967
176	0x3f713264	0.94217515
177	0x3f721193	0.94558066
178	0x3f7eedfe	0.995819
179	0x3f81fff1	1.0156232
180	0x3f72ac60	0.94794273
181	0x3f98e04c	1.194345
182	0x3f6e3a89	0.9305807
183	0x3f74ff45	0.9570201
184	0x3f86390d	1.048616
185	0x3f830aaa	1.023763
186	0x3f828b2f	1.0198725
187	0x3f8d7e37	1.1054143
188	0x3f743b0c	0.954026
189	0x3f727f11	0.9472514
190	0x3f7684d6	0.9629644
191	0x3f82b405	1.0211188
192	0x3fa0c52e	1.2560174
193	0x3f6f80c6	0.9355587
194	0x3f6c803c	0.9238317
195	0x3f6d94a5	0.9280494
196	0x3f734a60	0.9503536
197	0x3f6e9c03	0.93206805
198	0x3f796550	0.97420216
199	0x3f8aa99d	1.0833012
200	0x3f7b15f1	0.98080355
201	0x3f866f94	1.0502801
202	0x3f6c5650	0.923192
203	0x3f6f8bf9	0.93572956
204	0x3f6f8085	0.9355548
205	0x3f77613b	0.96632737
206	0x3f719688	0.9437032
207	0x3fa74aa2	1.3069651
208	0x3f75e68f	0.9605493
209	0x3f83d12c	1.0298209
210	0x3f75818e	0.9590081
211	0x3f741df8	0.9535823
212	0x3f6d41fc	0.9267881
213	0x3f69cc1c	0.9132707
214	0x3f6f9256	0.93582666
215	0x3f7266de	0.9468821
216	0x3f6f44bc	0.93464255
217	0x3f748531	0.95515734
218	0x3f8be1a3	1.0928234
219	0x3f6fbb53	0.9364521
220	0x3f9797b5	1.1843172
221	0x3f7c694d	0.98598176
222	0x3f6cde3b	0.92526597
223	0x3f6ef36a	0.9334017
224	0x3f845936	1.0339725
225	0x3f7d4f61	0.9894925
226	0x3f9f4411	1.2442647
227	0x3f6de25a	0.9292351
228	0x3fa44c2a	1.2835743
229	0x3f832cc7	1.024804
230	0x3f71ec39	0.9450107
231	0x3f6ecfba	0.93285716
232	0x3f73ec5b	0.95282525
233	0x3f731260	0.94949913
234	0x3f91fac5	1.1404654
235	0x3f936078	1.1513815
236	0x3f6fdfb3	0.9370071
237	0x3f70d9a5	0.940821
238	0x3f6de892	0.92933
239	0x3f858256	1.04304
240	0x3f6fe7e4	0.9371321
241	0x3f76bf2e	0.9638547
242	0x3f8f5f91	1.120104
243	0x3f9266df	1.1437644
244	0x3f6f2f6a	0.93431723
245	0x3f6bdd7b	0.9213483
246	0x3f7124ef	0.9419698
247	0x3f7776b2	0.9666549
248	0x3f6bb085	0.9206622
249	0x3f8d228c	1.1026168
250	0x3f7c046e	0.9844426
251	0x3f908385	1.1290137
252	0x3f738980	0.95131683
253	0x3f77f3ed	0.96856576
254	0x3f6ffa28	0.93741083
255	0x3f750fd1	0.9572726

features.2.bias f4 [256]
0	0x3d7ac97a	0.0612273
1	0x3d540500	0.05176258
2	0xbd927042	-0.07150318
3	0x3d80abf4	0.062827975
4	0x3c21eb8a	0.009882817
5	0x3d5ebe0a	0.054380454
6	0xbd4bf31f	-0.049792405
7	0x3da401e6	0.080081746
8	0x3d21ecca	0.03953246
9	0x3da4446e	0.080208644
10	0x3ac3232d	0.0014887803
11	0x3c957a56	0.01824681
12	0x3d0e31ff	0.03471565
13	0x3d72903a	0.059219576
14	0xbce3790f	-0.027767686
15	0x3d9990be	0.074983105
16	0x3cbbee9e	0.02294093
17	0x3d77c749	0.060492788
18	0xbd97f2c0	-0.07419348
19	0x3d0bd4c3	0.034138452
20	0xbd6c7e42	-0.057737596
21	0x3d4c7b10	0.04992205
22	0x3d8f8fc2	0.070098415
23	0x3d81265b	0.06306144
24	0xbd22085e	-0.03955876
25	0xbd61adb3	-0.055097293
26	0x3d79e377	0.061007943
27	0xbd986ab0	-0.07442224
28	0xbbe671f1	-0.007032626
29	0xbd70a627	-0.058752205
30	0x3d47a6e9	0.048743162
31	0x3cb57fbc	0.022155635
32	0x3d6ac8ba	0.057320334
33	0xbb0d2fa3	-0.0021543286
34	0x3d6475fd	0.055776585
35	0x3d92e055	0.07171694
36	0x3d97ba7c	0.07408616
37	0x3d53e2b8	0.051729888
38	0x3d964079	0.07336516
39	0x3bd21439	0.006411102
40	0xbc828b87	-0.015935672
41	0xbd6dd113	-0.058060717
42	0xbd11442b	-0.0354654
43	0xbd1a57b8	-0.03768131
44	0xbd200b91	-0.03907353
45	0xbba81681	-0.005129636
46	0xbd85ea49	-0.06538827
47	0x3bdfc246	0.006828579
48	0xbb276900	-0.0025544763
49	0x3d39bb03	0.045344364
50	0x3d846e13	0.064663075
51	0xbd7896ec	-0.060690805
52	0x3da46950	0.08027899
53	0xbb595654	-0.0033163028
54	0x3db03901	0.08604623
55	0x3d35fce6	0.044430636
56	0x3d4348a5	0.0476767
57	0xbd8a283c	-0.06745955
58	0x3d6c7ec1	0.05773807
59	0xbd37ad21	-0.044842843
60	0x3d448871	0.047981683
61	0x3d7bbff7	0.06146237
62	0xbda92f39	-0.0826096
63	0x3ac3f5d7	0.0014950585
64	0xbcbe5cfa	-0.023237694
65	0xbc79fc09	-0.015257844
66	0xbd48cbe5	-0.049022574
67	0xbd72fc8e	-0.059322886
68	0x3da08054	0.07836977
69	0xbd0627be	-0.032752745
70	0x3aca7a90	0.0015447903
71	0x3d80af91	0.06283487
72	0x3d9334d2	0.07187809
73	0x3d75a2bf	0.05996966
74	0x3d5a538e	0.05330234
75	0x3d804838	0.06263775
76	0x3d8f5c6c	0.0700005
77	0x3da36d3f	0.079798214
78	0x3d4fff44	0.05078055
79	0x3d54f593	0.05199201
80	0x3da74d1c	0.08169004
81	0xbd344a44	-0.044016138
82	0xbd205418	-0.039142698
83	0xbcc91b6c	-0.024549209
84	0xbd57b1ba	-0.052659728
85	0xbd02f6bf	-0.031973597
86	0x3d7b9141	0.06141782
87	0x3ccac38a	0.024751443
88	0xbcdeb6d2	-0.027186785
89	0xbd80d1e7	-0.06290036
90	0xbd777a6c	-0.060419485
91	0x3dab69d8	0.083697975
92	0x3d07ce4c	0.033155724
93	0xbd09353c	-0.033498034
94	0xbd5811ce	-0.052751355
95	0x3d1411fe	0.03614997
96	0x3d8f633d	0.0700135
97	0x3d48511e	0.048905484
98	0x3c1c7c64	0.009551141
99	0x3d67f615	0.056631166
100	0x3d5cc9eb	0.0539035
101	0xbce5b688	-0.02804114
102	0xbd325fba	-0.043548323
103	0xbcea11e6	-0.028572988
104	0x3dcacba8	0.099021256
105	0x3d8c5b55	0.06853358
106	0x3b777659	0.003775975
107	0xbd26ee59	-0.04075465
108	0x3d9b5984	0.07585433
109	0x3d277619	0.04088411
110	0x3da07fa1	0.07836843
111	0x3cfb2ac5	0.030660043
112	0x3d3438c0	0.043999434
113	0xbc8e45b8	-0.017367229
114	0xbd1d72ce	-0.038439564
115	0x3d61416d	0.054994036
116	0x3d56f36f	0.05247825
117	0xbd6e1944	-0.058129564
118	0x3d462a4f	0.048380192
119	0xbd4b440f	-0.049625453
120	0xbd18a590	-0.037267268
121	0x3d7ac25e	0.06122052
122	0x3d6efb88	0.058345348
123	0x3d8e3e1a	0.06945439
124	0xbd33a2db	-0.043856483
125	0x3d769dcb	0.060209077
126	0x3cd0364b	0.025416514
127	0x3d7ce9fe	0.06174659
128	0xbd0103d7	-0.031497803
129	0x3d7e6ad0	0.062113583
130	0x3d9fe191	0.07806695
131	0xbcb9f789	-0.022701042
132	0xbd1c864d	-0.038214017
133	0xbd5013ae	-0.050800018
134	0x3d8185f4	0.06324378
135	0x3d1f8160	0.03894174
136	0xbc099b8d	-0.008398903
137	0xbd96a4d4	-0.07355657
138	0xbbd549f1	-0.0065090586
139	0x3d93f60d	0.07224665
140	0xbd9d8a14	-0.07692352
141	0x3d574a37	0.05256101
142	0x3d6bed67	0.05759945
143	0x3d6da8ac	0.058022186
144	0x3deda1d2	0.116031304
145	0x3da3337b	0.079688035
146	0xbd7f3531	-0.062306587
147	0xbceda399	-0.029008674
148	0xbd43b526	-0.04778018
149	0x3d4eb182	0.050462253
150	0x3dac077d	0.08399866
151	0xbd794da2	-0.060865052
152	0x3d880c95	0.06643025
153	0x3da6ca8b	0.08144101
154	0xbceeacfe	-0.029135223
155	0x3d8ecb76	0.06972401
156	0x3cc365b7	0.023852212
157	0x3d2f20b8	0.042755812
158	0x3d969531	0.07352675
159	0x3d2811c0	0.041032553
160	0xbd6fd1a8	-0.058549553
161	0x3d6f4191	0.05841214
162	0xbd32ad22	-0.043622144
163	0xbd76bec0	-0.060240507
164	0xbcc25208	-0.023720756
165	0x3d53f231	0.051744644
166	0x3d789fc1	0.06069923
167	0xbd9d3705	-0.0767651
168	0xbd511c48	-0.05105236
169	0x3da1445e	0.07874368
170	0x3da0defe	0.078550324
171	0xbd8bdd2e	-0.06829296
172	0x3da7cd68	0.08193475
173	0x3dad8eca	0.084745005
174	0x3d645649	0.05574635
175	0xbd5c6a96	-0.053812586
176	0x3d6efbf6	0.058345757
177	0x3d63cfb1	0.05561799
178	0x3cec065f	0.028811632
179	0x3cd5893d	0.026066417
180	0x3d57a7d1	0.052650277
181	0xbc548fe9	-0.012973764
182	0x3d901a61	0.070362814
183	0x3d30ef90	0.043197215
184	0x3cd82758	0.026385948
185	0x3d4beac3	0.049784433
186	0x3caea1b8	0.021317348
187	0x3c30f8cf	0.010801508
188	0x3d403f47	0.046935346
189	0x3d5beece	0.05369454
190	0xbd5e6144	-0.05429198
191	0xbd0bdc59	-0.034145687
192	0xbbdbbc56	-0.006705801
193	0x3d856552	0.06513466
194	0xbd8e68d9	-0.06953592
195	0xbdaeb95e	-0.0853145
196	0xbd85f3ed	-0.06540666
197	0x3d8d2089	0.06890971
198	0xbd5a7306	-0.05333235
199	0x3cc7bac6	0.024381053
200	0xbd4a313f	-0.04936337
201	0xbd334b68	-0.043773085
202	0x3da2c244	0.079472095
203	0x3d8599c5	0.0652347
204	0x3d840717	0.06446665
205	0xbd4cd5cc	-0.05000858
206	0xbd8a16d0	-0.067426324
207	0xbcc7173f	-0.024303077
208	0x3d22bf7a	0.039733388
209	0xbd07b74e	-0.033133797
210	0x3d25f7b4	0.04051943
211	0x3d3ba99b	0.045816045
212	0x3d97189b	0.0737774
213	0x3db20ac2	0.08693458
214	0x3d845fdb	0.064635955
215	0xbd828804	-0.06373599
216	0x3d84c11e	0.06482147
217	0x3d3532ef	0.044238027
218	0xbc83c4fe	-0.016085144
219	0x3d83cb4f	0.064352624
220	0x3b1aa18d	0.0023594827
221	0x3d0a6374	0.033786252
222	0x3d997358	0.07492703
223	0x3d8a0a8b	0.06740292
224	0xbd1b1c1e	-0.03786861
225	0xbd2e8c2e	-0.042614155
226	0xbc9c6f8d	-0.01909616
227	0x3d9144db	0.07093211
228	0x3c0f13cf	0.00873275
229	0xbd093c18	-0.033504575
230	0x3d647a3d	0.055780638
231	0xbd9018b4	-0.07035962
232	0x3d40d1c1	0.047075037
233	0x3d4e8263	0.050417315
234	0x3c43d90c	0.0119536035
235	0xbc147d90	-0.00906314
236	0x3d805bbd	0.06267498
237	0xbd97eda6	-0.07418375
238	0x3d93cc7d	0.072167374
239	0xbd31138f	-0.043231543
240	0x3d7ec44f	0.062198933
241	0x3d136728	0.03598705
242	0xbc39e187	-0.011345274
243	0xbc808163	-0.015686696
244	0xbd8d0bb9	-0.068870015
245	0x3da23d49	0.079218455
246	0x3d7561d7	0.05990776
247	0xbd28bb23	-0.041194092
248	0x3da5d0b5	0.08096448
249	0xbcb183d3	-0.021669304
250	0xbd2035e8	-0.03911391
251	0xbc945d4c	-0.018110894
252	0xbd8aee83	-0.06783774
253	0x3d01349a	0.031544305
254	0x3d82781c	0.06370565
255	0xbd787d5e	-0.060666434

features.4.weight f4 [128, 256]
0	0xbcad2cda	-0.021139551
1	0xbb9d414b	-0.0047990433
2	0xbbbe3eef	-0.005805842
3	0xbcbc2562	-0.022967044
4	0xbd3f5bdc	-0.046718463
5	0xbd157212	-0.03648574
6	0x3d8398eb	0.06425651
7	0x3cfd9d9c	0.030958943
8	0xbba7528d	-0.0051062764
9	0xbce6f6c5	-0.02819384
10	0x3dd0ac8b	0.1018916
11	0x3d28289a	0.041054346
12	0xbd106b0f	-0.03525835
13	0x3d7bdb00	0.06148815
14	0xbd2f2f6a	-0.042769827
15	0xbcb76559	-0.022387194
16	0xbd57b313	-0.052661013
17	0x3d6259db	0.055261474
18	0xbd7bf06e	-0.06150859
19	0x3c2745ef	0.010209545
20	0xbc9a1e78	-0.018813357
21	0xbc199425	-0.009373699
22	0xbd73a8ee	-0.059487276
23	0xbcd9289e	-0.026508626
24	0x3b470ae6	0.0030371486
25	0x3d4429d9	0.04789147
26	0x3ba104bb	0.004913894
27	0x3d6f3ce9	0.058407698
28	0x3decaf19	0.11556835
29	0xbd40c2c5	-0.047060747
30	0xbd58aa47	-0.052896764
31	0xbb86d188	-0.0041143335
32	0xbc5244c4	-0.012833778
33	0x3e74f7ee	0.23922703
34	0xbcd6bbc0	-0.026212573
35	0xbce2900d	-0.02765658
36	0x3c93ab57	0.018026037
37	0x3d09184b	0.033470433
38	0x3cea2c4b	0.028585574
39	0xbde538e9	-0.111924954
40	0xbdc49f94	-0.096007496
41	0x3d489b5e	0.048976295
42	0x3d921f57	0.07134884
43	0x3c9e0be2	0.019292776
44	0x3c53cfeb	0.0129279895
45	0xbe4500c3	-0.19238572
46	0x3d1083f8	0.035282105
47	0x3d90617a	0.07049842
48	0x3c7d6156	0.015465101
49	0xbc69bcf0	-0.014266238
50	0xbcb81197	-0.022469325
51	0xbd513b23	-0.051081788
52	0x3c66a8ea	0.014078358
53	0x3c90191d	0.0175901
54	0xbcb4ef6c	-0.022086821
55	0x3b419d33	0.002954316
56	0x3c89b013	0.016807592
57	0xbceb72c2	-0.028741244
58	0x3d175311	0.036944453
59	0x3d834e70	0.06411445
60	0x3cd8128d	0.026376033
61	0xbd62d30a	-0.055377044
62	0x3d014f47	0.031569745
63	0xbd2bf2bf	-0.041979548
64	0xbc8fdc13	-0.017560994
65	0xbda1da2b	-0.0790294
66	0x3d38b801	0.045097355
67	0x3cf259c0	0.029583812
68	0xbd4447a7	-0.047919895
69	0xbcfcc5b1	-0.030855985
70	0x3d38c780	0.045112133
71	0xbccdcfa7	-0.02512343
72	0xbc9c3326	-0.019067358
73	0xbd1a9707	-0.037741687
74	0xbbc30d56	-0.0059525175
75	0xbb5b239d	-0.0033437975
76	0x3d72fea6	0.059324883
77	0xbd594f5b	-0.053054195
78	0xbcb52c29	-0.022115784
79	0xbd88da7b	-0.06682297
80	0xbd4591c0	-0.0482347
81	0x3d124229	0.035707626
82	0x3c22ebfe	0.00994396
83	0x3e77f22e	0.24213478
84	0xbc8437e1	-0.016139926
85	0xbcb751c0	-0.022377849
86	0x3ce1a5d9	0.027544903
87	0xbe16a32a	-0.1471068
88	0x3db4cae5	0.088277616
89	0xbceddbed	-0.029035533
90	0x3c6b2ece	0.014354421
91	0xbd003f15	-0.03131016
92	0xbda7a579	-0.08185858
93	0xbd9328b2	-0.071854964
94	0xbcca4552	-0.024691258
95	0xbd67c284	-0.05658199
96	0x3ca9cace	0.020726588
97	0x3be15918	0.006877076
98	0x3e4aaa91	0.19791628
99	0xbd3116dc	-0.04323469
100	0xbce7f1ca	-0.028313536
101	0x3d94b7d6	0.072616264
102	0xbd65cb9b	-0.056102376
103	0xbd667353	-0.056262325
104	0xbc2c235d	-0.010506478
105	0x3bd66319	0.006542575
106	0x3e013115	0.1261638
107	0xbd4a74af	-0.049427684
108	0xbd47abf3	-0.048747968
109	0x3d1d64ad	0.03842609
110	0x3cb113fb	0.021615973
111	0xbc1e8afa	-0.009676689
112	0x3c803da5	0.015654394
113	0xbc8eb79c	-0.017421536
114	0xbc9de74e	-0.019275334
115	0x3cdc3bcc	0.026883982
116	0xbcd4a5b6	-0.025957923
117	0x3cdf8e52	0.027289543
118	0x39b7757b	0.0003499201
119	0x3ca2ab95	0.019857207
120	0x3d054bba	0.03254292
121	0xbb6df7ee	-0.0036311108
122	0xbcdc47cf	-0.02688971
123	0xbc0b959c	-0.008519556
124	0xbd3b5a8c	-0.04574065
125	0xbd474da3	-0.048658025
126	0x3d079de0	0.033109546
127	0x3ce59584	0.028025396
128	0xbd9e5a79	-0.077321
129	0x3d2eed47	0.042706754
130	0xbcb40668	-0.021975711
131	0x3ce08a70	0.027409762
132	0xbd1e2b47	-0.03861549
133	0xbc685a58	-0.014181696
134	0xbcb4f656	-0.022090118
135	0x3d9219b1	0.071338065
136	0x3e258a1b	0.16165964
137	0x3c9acfc4	0.018897898
138	0x3cbb6e85	0.022879848
139	0xbc8e1a47	-0.017346514
140	0x3c85ad5a	0.016318012
141	0xbd38b12a	-0.04509083
142	0x3d236624	0.03989233
143	0x3c9cfebe	0.01916444
144	0xbcefe9c9	-0.029286282
145	0x3b89bcff	0.0042034383
146	0xbd5e7eab	-0.05432002
147	0xbd56109a	-0.052261926
148	0x3d900c27	0.07033568
149	0xbd21dd3a	-0.03951762
150	0xbd0a06a2	-0.03369773
151	0x3b997a3b	0.0046837605
152	0x3d2d1ad2	0.042261906
153	0x3d81079f	0.06300282
154	0xbc030152	-0.00799592
155	0x3cebc1d8	0.028778955
156	0xbd0ad356	-0.033892952
157	0x3ccbe62b	0.024890026
158	0xbd2d42a1	-0.04229987
159	0x3d32451c	0.04352294
160	0x3cc2e947	0.023792876
161	0xbd2c11d6	-0.042009197
162	0x3da3c05a	0.079956725
163	0xbcf570dd	-0.029961044
164	0x3d18a02b	0.037262123
165	0xbd1a1d54	-0.037625626
166	0x3d4674ca	0.048451222
167	0xbd4c2482	-0.049839504
168	0x3d119aa8	0.035547882
169	0xbd39476f	-0.04523414
170	0x3c02ffe1	0.007995577
171	0xbd49cbc0	-0.049266577
172	0xbd254232	-0.040346332
173	0x3c5bc869	0.013414481
174	0x3cedaeba	0.02901398
175	0x3bc673cd	0.006056285
176	0xbc5b9a89	-0.013403543
177	0xbd3c3a19	-0.045953844
178	0xbdadc4bb	-0.08484789
179	0xbd9f454f	-0.077768914
180	0x3c3889c1	0.011263312
181	0x3e14bf66	0.14526138
182	0xbd25f587	-0.040517356
183	0xbbf99563	-0.0076166852
184	0xbcbab5b0	-0.022791713
185	0x3ad14663	0.0015966411
186	0xbdb7ecb2	-0.08980693
187	0xbd4ec568	-0.05048123
188	0xbd746ade	-0.05967223
189	0x3d7bfce9	0.06152049
190	0x3cc78e5d	0.024359876
191	0xbd3ea947	-0.046548154
192	0x3e23ed9c	0.1600861
193	0xbc88bc8e	-0.016691472
194	0x3cc5e7ec	0.02415844
195	0xbd2a9c1b	-0.04165278
196	0x3d1e14e7	0.038594153
197	0xbd65120f	-0.055925425
198	0xbc1decb4	-0.009638954
199	0xbd186f9a	-0.037215807
200	0x3cc21957	0.023693724
201	0x3ce33543	0.027735358
202	0xbd75af4f	-0.05998164
203	0xbcba4589	-0.022738235
204	0x3d6e0423	0.058109414
205	0xba87b1ed	-0.0010352709
206	0x3d2b2734	0.041785434
207	0x3e27a8d3	0.16372995
208	0xbc9d705a	-0.019218612
209	0x3d8d54b9	0.06900925
210	0xbd56ad9d	-0.052411664
211	0xbc7170d5	-0.014736374
212	0xbd698ecf	-0.05702096
213	0x3c8ed18e	0.017433908
214	0x3b690230	0.0035554282
215	0x3d0e9a6f	0.034815248
216	0xbd1fa339	-0.03897402
217	0x3b2224ef	0.0024741252
218	0xbcc76bf9	-0.024343478
219	0xbccd7b0e	-0.025083091
220	0xbddb9d78	-0.10723394
221	0x3d873b90	0.066031575
222	0xbcc53a33	-0.024075603
223	0x3c37c0ec	0.01121543
224	0xbd820d8f	-0.06350242
225	0xbd729520	-0.059224248
226	0x3e14f8f9	0.145481
227	0x3cb3c315	0.021943608
228	0x3e64573d	0.22298904
229	0xbc07bfa6	-0.008285439
230	0xbd57ab54	-0.052653626
231	0x3d489c97	0.04897746
232	0xbd30ae18	-0.04313478
233	0xbc27ee54	-0.010249693
234	0xbd47b9dc	-0.048761234
235	0x3dc10ad3	0.09425893
236	0x3d5826d8	0.05277142
237	0x3c1f2e29	0.009715595
238	0xbd4e1156	-0.0503095
239	0x3cae1973	0.02125237
240	0xbd01c78f	-0.031684455
241	0x3cd7c77b	0.026340237
242	0x3d79f5b6	0.061025344
243	0x3d08e83d	0.033424605
244	0xbc62fad4	-0.013853747
245	0xbd49ed7c	-0.04929875
246	0xbc93b116	-0.018028777
247	0xbc81bb1c	-0.015836291
248	0xbd352303	-0.044222843
249	0x3d0cfe75	0.034422357
250	0x3d370ae1	0.04468811
251	0x3cd66517	0.02617125
252	0xbc33ed28	-0.010981835
253	0xbb91ec4b	-0.004453217
254	0xbd820fcf	-0.063506715
255	0xbc9ce973	-0.019154286

features.4.bias f4 [128]
0	0x3c880407	0.016603483
1	0x3d152716	0.03641423
2	0x3ca7860b	0.020449659
3	0x3d32c7d2	0.043647595
4	0xbcb001d2	-0.021485243
5	0xbd2b830e	-0.04187303
6	0x3d328951	0.043587986
7	0x3d14918e	0.036271624
8	0x3d54bb9e	0.05193674
9	0xbd01c7ab	-0.03168456
10	0x3c4a5e19	0.012351536
11	0x3ccd9df8	0.02509974
12	0xbc44b898	-0.012006901
13	0xbc53d75f	-0.012929766
14	0x3cac45e7	0.021029426
15	0x3d1a5034	0.037674144
16	0x3c8d1849	0.017223494
17	0xbd83ed28	-0.06441718
18	0x3cd86b1e	0.026418265
19	0x3d0be492	0.03415353
20	0x3cff26a1	0.03114635
21	0xbcdc5ba6	-0.02689917
22	0x3cb17230	0.021660894
23	0x3c32a2a4	0.010903034
24	0x3b35ce36	0.002774132
25	0xbcd7bf55	-0.026336351
26	0x3cef330c	0.029199146
27	0xbd65a80a	-0.056068458
28	0xbd4aea55	-0.049539883
29	0xbc7bbe59	-0.015365207
30	0xbcd90ba4	-0.026494808
31	0xbc229bff	-0.009924888
32	0x3d0d6131	0.034516517
33	0x3ca4a7d9	0.020099567
34	0x3c019779	0.007909649
35	0xbc2da260	-0.010597795
36	0x3cb5e97b	0.022206059
37	0xbcd1c4ec	-0.025606595
38	0x3d12bc98	0.03582439
39	0xbd97bc7d	-0.07408998
40	0xbcafe67a	-0.021472204
41	0x3bdc0e85	0.006715598
42	0x3a693192	0.0008895631
43	0xbd2101e4	-0.039308444
44	0xba99604c	-0.0011701672
45	0x3c299aaf	0.010351821
46	0x3cde7685	0.027156124
47	0x3d2669d4	0.04062827
48	0x3d2c8d52	0.04212696
49	0xbc4a15c2	-0.012334289
50	0xbd013f40	-0.03155446
51	0xbd172ee9	-0.03690997
52	0xbbb0b9a3	-0.0053932234
53	0xbd06f507	-0.03294852
54	0xbcf84445	-0.030305991
55	0x3b215609	0.0024617931
56	0xbca8c5fb	-0.020602217
57	0x3d3a39a6	0.045465134
58	0x3d0748a4	0.03302826
59	0xbd013bc4	-0.031551138
60	0xbd2fd926	-0.0429317
61	0xbc5fbf95	-0.013656517
62	0xbd046528	-0.032323033
63	0xbc763ead	-0.0150295915
64	0xbc40995d	-0.011755315
65	0xbcf4fc14	-0.029905356
66	0x3d2f3404	0.042774215
67	0xbd036eab	-0.032087963
68	0x3d332e51	0.043745343
69	0x3cc5ec45	0.024160514
70	0xbd0fa8a6	-0.035072945
71	0x3bae9dbd	0.0053288625
72	0x3d4ecea1	0.050490025
73	0x3cc51071	0.024055691
74	0xbd1b65d0	-0.037938893
75	0xbbd24112	-0.0064164484
76	0x3d2ad84f	0.041710194
77	0x3c667ffa	0.014068598
78	0xbcf48c91	-0.029852184
79	0xbd18b7b6	-0.037284575
80	0xbcf0ce0b	-0.029395124
81	0x3b993e8b	0.004676645
82	0x3a8e628a	0.0010863107
83	0x3cd72252	0.026261482
84	0x3d42bab1	0.047541324
85	0xbd0a847f	-0.033817764
86	0x3c82a83c	0.015949361
87	0xbccdbcfb	-0.025114527
88	0xbd769f82	-0.060210712
89	0x3d205faa	0.039153732
90	0x3c601eb4	0.013679195
91	0xbc1ba207	-0.00949908
92	0x3d1b0276	0.037844144
93	0xbd03619b	-0.032075506
94	0xbd7709f5	-0.06031223
95	0x3a7edceb	0.00097222504
96	0xbd03fe0d	-0.032224704
97	0x3cf0ee30	0.029410452
98	0xbd5ae344	-0.053439394
99	0x3d6d7192	0.057969637
100	0x3d6cd472	0.05781979
101	0xbb935304	-0.00449598
102	0xb9c15c74	-0.00036880712
103	0x3d5868b8	0.052834243
104	0xbc8a750b	-0.016901514
105	0x3d2e6df3	0.042585324
106	0xbcaac3bf	-0.020845292
107	0x3ce8302a	0.028343279
108	0x3c141a88	0.009039529
109	0x3b24e2fd	0.002515971
110	0x3c037b76	0.008025041
111	0xbd767417	-0.060169306
112	0x3d08278f	0.03324085
113	0xbd65b0fa	-0.05607698
114	0xba7b78fa	-0.0009592917
115	0x3d993a9c	0.07481882
116	0xbbf5d8e9	-0.0075026643
117	0xbc6aed4a	-0.014338801
118	0xbd2605db	-0.040532928
119	0x3d018e52	0.031629868
120	0xbc30240b	-0.010750781
121	0xbd1c7320	-0.03819573
122	0x3c81aaf5	0.015828589
123	0xbd7d11ba	-0.061784483
124	0xbd4e0cad	-0.050305057
125	0xbd434f14	-0.047682837
126	0xbc27a872	-0.010233032
127	0xbcfc563a	-0.030802835

features.6.weight f4 [128]
0	0x3f76c372	0.96391976
1	0x3f7b90c5	0.98267776
2	0x3f7ed5ba	0.9954487
3	0x3f8030f6	1.0014942
4	0x3f6da35e	0.92827404
5	0x3f7a6ba4	0.97820497
6	0x3f83018a	1.0234845
7	0x3f6edfe9	0.9331041
8	0x3f76b26d	0.96366006
9	0x3f7ff6cf	0.99985975
10	0x3f76c121	0.9638844
11	0x3f7c7e54	0.9863026
12	0x3f786aa9	0.9703775
13	0x3f76b441	0.96368796
14	0x3f7b1401	0.980774
15	0x3f7ce33d	0.9878424
16	0x3f791397	0.97295517
17	0x3f7717ba	0.9652058
18	0x3f7228ce	0.94593513
19	0x3f78299b	0.96938485
20	0x3f790d73	0.97286147
21	0x3f7a76ce	0.9783753
22	0x3f808957	1.0041913
23	0x3f714cf5	0.9425805
24	0x3f7ce89f	0.9879245
25	0x3f7a632c	0.97807574
26	0x3f73e60a	0.95272887
27	0x3f77b13f	0.9675483
28	0x3f7c241d	0.98492604
29	0x3f7ece8e	0.9953393
30	0x3f7a0574	0.9766457
31	0x3f753983	0.9579088
32	0x3f702d48	0.93819094
33	0x3f8300c7	1.0234612
34	0x3f77ec20	0.96844673
35	0x3f863a85	1.0486609
36	0x3f843f6e	1.0331857
37	0x3f7b0e4e	0.980687
38	0x3f727e6d	0.9472416
39	0x3f7a0948	0.9767041
40	0x3f7d6008	0.9897466
41	0x3f777e60	0.9667721
42	0x3f78f48d	0.97248155
43	0x3f7ecfea	0.99536
44	0x3f811724	1.0085187
45	0x3f78ef25	0.97239906
46	0x3f76e057	0.96436065
47	0x3f80a505	1.005036
48	0x3f8439f5	1.0330187
49	0x3f758285	0.9590228
50	0x3f856619	1.0421783
51	0x3f85ecdf	1.0462912
52	0x3f78e6ad	0.97226983
53	0x3f7b0357	0.9805197
54	0x3f7b85bf	0.98250955
55	0x3f799436	0.97491777
56	0x3f7c19dc	0.9847696
57	0x3f6e7263	0.9314329
58	0x3f83deba	1.0302346
59	0x3f80f902	1.0075991
60	0x3f791a6b	0.97305936
61	0x3f77a57e	0.96736896
62	0x3f7dbde7	0.99117893
63	0x3f77cd34	0.9679749
64	0x3f71ca2f	0.9444913
65	0x3f71d97f	0.944725
66	0x3f7c7c8d	0.9862755
67	0x3f7d0a76	0.9884409
68	0x3f798fa4	0.97484803
69	0x3f7ca0f0	0.9868307
70	0x3f7825cd	0.9693268
71	0x3f7573e1	0.9587994
72	0x3f85f40c	1.0465102
73	0x3f74bc13	0.9559948
74	0x3f7c5422	0.98565876
75	0x3f72a1e8	0.947783
76	0x3f7c36dc	0.9852121
77	0x3f7ef021	0.9958516
78	0x3f70a96a	0.94008505
79	0x3f770b59	0.9650169
80	0x3f812d59	1.0091964
81	0x3f82c928	1.0217638
82	0x3f779979	0.96718556
83	0x3f74dcab	0.9564921
84	0x3f7c85f3	0.9864189
85	0x3f753851	0.95789057
86	0x3f73934c	0.9514663
87	0x3f79b455	0.9754079
88	0x3f7610b0	0.96119213
89	0x3f753d36	0.95796525
90	0x3f77b278	0.96756697
91	0x3f7ff19d	0.9997805
92	0x3f7e1993	0.99257773
93	0x3f786f48	0.970448
94	0x3f735550	0.9505205
95	0x3f7735c1	0.96566397
96	0x3f7e896f	0.9942846
97	0x3f8660cd	1.0498291
98	0x3f80219b	1.0010256
99	0x3f88e05d	1.069347
100	0x3f7dd69f	0.9915561
101	0x3f774c10	0.9660044
102	0x3f7bbe1d	0.98336965
103	0x3f70c5cf	0.9405183
104	0x3f7a8b14	0.97868466
105	0x3f78d71b	0.97203225
106	0x3f7482ff	0.95512384
107	0x3f7f4115	0.9970868
108	0x3f7b59a5	0.9818366
109	0x3f75979b	0.95934457
110	0x3f78cca6	0.9718727
111	0x3f7af472	0.98029244
112	0x3f815302	1.0103457
113	0x3f7dc36e	0.9912633
114	0x3f746d22	0.95479023
115	0x3f76c387	0.963921
116	0x3f8647f7	1.0490712
117	0x3f778c1c	0.96698165
118	0x3f7817a9	0.969111
119	0x3f7bf617	0.9842238
120	0x3f833e8e	1.0253465
121	0x3f79a3ec	0.9751575
122	0x3f742bd2	0.95379364
123	0x3f7bef2c	0.9841182
124	0x3f7c40e8	0.9853654
125	0x3f72e97c	0.9488752
126	0x3f74bad3	0.9559757
127	0x3f758883	0.95911425

features.6.bias f4 [128]
0	0x3af4f9a0	0.0018690117
1	0xbb1a3fc2	-0.0023536538
2	0xbc98b18a	-0.018639345
3	0x3ce06337	0.02739106
4	0xbd29c463	-0.041447055
5	0x3ca9b724	0.020717211
6	0x3bcf4cfa	0.006326315
7	0x3c1f9b90	0.009741679
8	0x3d1832a7	0.03715768
9	0x3bf4ef3e	0.007474809
10	0x3c757339	0.0149810845
11	0x3ca2b3e4	0.01986117
12	0x3c2f9354	0.010716278
13	0x3cffa046	0.031204354
14	0x3c50d510	0.012746111
15	0x3c73b597	0.014874837
16	0xbcf72e93	-0.030173576
17	0x3cf3c2f3	0.029756045
18	0x3d52110f	0.0512858
19	0x3c463764	0.012098167
20	0x3c86e4f1	0.01646659
21	0x3b139c59	0.002252361
22	0xbbc83c86	-0.0061107306
23	0x3d71b913	0.05901439
24	0x3d1dbe59	0.038511608
25	0x3c8eb981	0.01742244
26	0xbd2acaf5	-0.04169746
27	0x3c298031	0.010345505
28	0xbc9cb24d	-0.01912799
29	0x3bb5ecd5	0.005551914
30	0x3baa4362	0.005196021
31	0x3d0e4d08	0.03474143
32	0x3d3f6c8d	0.04673438
33	0xbd11a90b	-0.035561603
34	0x3cddf652	0.027094994
35	0xbcfad7da	-0.030620504
36	0x3c8dcf85	0.017310867
37	0xbb367a8a	-0.0027844035
38	0x3d281ebd	0.04104494
39	0xbc0d79ca	-0.008634994
40	0xbbb273c8	-0.005445931
41	0x3d0db62a	0.034597553
42	0x3cbe7da7	0.023253275
43	0xbc9bf5b5	-0.01903806
44	0x3c8d3bc3	0.01724041
45	0x3cc03aca	0.023465533
46	0x3cfc2680	0.030780077
47	0xbbcf3954	-0.0063239727
48	0xbcd77904	-0.026302822
49	0x3d0f2339	0.0349457
50	0xbce9a895	-0.028522769
51	0xbb35f86b	-0.0027766477
52	0x3cab98c6	0.020946871
53	0x3c3ae457	0.0114069795
54	0x3c5d2abc	0.013498958
55	0xbd10238f	-0.03519016
56	0x3c02df97	0.007987878
57	0x3d09ee6e	0.03367465
58	0x3bfd0ef5	0.0077227303
59	0x3c2acb93	0.010424512
60	0x3cabc48b	0.020967742
61	0x3ceb8520	0.028750002
62	0xba8e1b1d	-0.0010841821
63	0x3babcd3e	0.0052429726
64	0x3d507477	0.05089232
65	0xbd4d1ac1	-0.050074343
66	0xbcaa7160	-0.020806015
67	0x3c1ccd9c	0.0095705055
68	0x3c2b8790	0.010469332
69	0x3bfdeda2	0.0077492753
70	0x3cdfde1e	0.027327593
71	0xbcd5d4e9	-0.0261025
72	0xbc799d33	-0.015235233
73	0xbc578fc5	-0.013156836
74	0x3c0845e6	0.008317446
75	0x3d2c42d6	0.042055927
76	0x3c2ea3b3	0.010659146
77	0xba694371	-0.0008898294
78	0x3d6292a2	0.05531562
79	0xbcc883e8	-0.02447696
80	0xbd16655b	-0.036717754
81	0xbba9ca2b	-0.005181571
82	0x3c7d7830	0.015470549
83	0x3d287491	0.04112679
84	0x3d089034	0.033340648
85	0xbb218d2b	-0.0024650793
86	0xbcdc81d0	-0.026917368
87	0xbd29962a	-0.041402973
88	0x3d109761	0.035300616
89	0x3d10abae	0.035319977
90	0x3d15c300	0.03656292
91	0xbb84dedc	-0.004054887
92	0x3c617d33	0.01376276
93	0x3cb67499	0.022272395
94	0x3d502820	0.050819516
95	0xbba7f74c	-0.0051259156
96	0xbaa47c51	-0.0012549256
97	0xbb804791	-0.0039147814
98	0xbc8115cb	-0.015757462
99	0xbc68e960	-0.014215797
100	0x3bee877f	0.007279336
101	0x3af77bfb	0.0018881554
102	0x3c44070c	0.011964571
103	0xbd143f39	-0.036193106
104	0x399b0a26	0.00029571465
105	0xbc79a04a	-0.01523597
106	0x3c8ed105	0.017433653
107	0xbd43ffc6	-0.047851346
108	0x3c802146	0.015640866
109	0x3c37b832	0.011213349
110	0x3cdd3b8c	0.027005933
111	0x3bd19704	0.0063961763
112	0xba5f6967	-0.0008522481
113	0xbc230cd6	-0.009951791
114	0x3d36ffd2	0.044677563
115	0xbd2b6d37	-0.041852202
116	0x3c680583	0.01416147
117	0x3cd8ca99	0.026463794
118	0xbcbd5cbb	-0.023115506
119	0x3c50d98e	0.012747182
120	0xbca1740b	-0.019708654
121	0xbc81eeb0	-0.015860885
122	0xbd16e6d4	-0.03684123
123	0x3b138c2b	0.0022513967
124	0xbc1de610	-0.009637371
125	0x3d043df9	0.032285664
126	0x3d240633	0.040044975
127	0xbd5063c1	-0.050876383
