ppo_model.pth (torch, 224462 bytes, 15 tensors)

features.0.weight f4 [256, 15]
00000000: 427f 6e3d 07d7 1bbe 8fa0 9f3c 7b40 e6bc
00000010: fb8a f33d 1d87 0d3d da6c 4d3e 483d f4bd
00000020: 98b2 16be 0071 723e f00f a8bb e247 0a3e
00000030: 81b7 e4bc b1a9 1fbd 7e0f 2fbe dace 24be
00000040: 3410 8bbd 29a2 8d3c 8a9a f0bd 9789 313c
00000050: 8b1e 893d 5211 2a3e 2e46 f2bd ba6b 0b3e
00000060: 8cdf 4b3c b1b3 87bc bc82 9b3d f272 2bbe
00000070: 680e 64be 3d55 673e 106f f23d 747c f5bd
00000080: 8c31 12be 0110 5c3e b130 c6bd bd95 6dbe
00000090: 45f8 4b3c e9c2 a13d e664 5e3e 808b b7bd
000000a0: 7030 0f3d 68d3 813e 73c4 87bf 3ce3 893f
000000b0: 4fd9 58bd 1741 743e e55b f43d 1e2e 4d3e
000000c0: 1c5a 173e a01f 133e 1038 013e a8fe 8cbd
000000d0: 6202 5ebe 979c f83d 780b 5ebe 65e4 a63d
000000e0: 2c0d 0b3d 3f55 483e 3553 813e e455 88bd
000000f0: d51f 983d 5c5c 633e 9bd1 3538 9d34 9abd
00000100: cb8f 933d 1d26 e5bd 7a40 6d3e 5fb7 b0bc
00000110: 3c8e 57be 09d4 67be d5be 6fbe 12f0 793d
00000120: 2840 333e e438 543e 64b8 d43d 829c 47bc
00000130: 24c4 12be 0b43 a8bd 0f10 963e b535 70be
00000140: b6c2 49be 0f14 cdba 0c23 1c3e c240 3b3e
00000150: 3910 0cbe dded 313e 1ba7 82be 3984 963e
00000160: f25d 993e e3b0 f83c 2841 253c 887a ccbd
00000170: 3cc8 a63e 3246 a03e acd5 12be 6a2f b73d
00000180: 3474 0fbe e762 133e eba8 ce3d 0558 aa3d
00000190: f240 4dbe 594c 0f3e a9c0 a1bd 8b0d a93e
000001a0: 5329 81be 17aa 9abe c4d3 7e3d ad1d 32be
000001b0: 5d48 bdbd 196f 3c3e 14db 4ebe 16e4 0c3d
000001c0: 7c2f 103e c96e 143e 45a1 a23b e16d 28bd
000001d0: 7d12 613e 18a7 28be 3f8c c33e b08e 70be
000001e0: 58e2 7abe 199d e7bd 4d3b 71bd 8227 09be
000001f0: 5e4f ae3d 0c7b 2f3e 13f7 81be 9cba 0dbe
00000200: 57c7 5cbe 2b27 3dbe 696c 59be cb14 6ebe
00000210: 5556 473e 2b37 63be 04f3 523e 1631 273e
00000220: accf 8b3e 126b af3e 8524 bebd 73f5 73bc
00000230: 5421 0d3e f3ba cb3d e638 313e 08d9 253e
00000240: 2265 d93d 9515 223e 7b9f 143e f7b5 67be
00000250: 54d5 ad3e 86a5 97be 5086 adbd 3ccd df3c
00000260: 3efb fa3d 2f87 dfbd 9c13 173c 51d2 3a3e
00000270: 7def 61bd bcdb 1fbe 1989 28bd 4916 4cbd
00000280: 262c 06be ad75 20be 1644 56be 6218 3a3e
00000290: bc91 7b3e 373f 5e3d 26b1 0bbe 4412 3abe
000002a0: f251 adbd 6967 97be c6f1 7b3d 121f 19be
000002b0: 28b6 993d 8cc8 2ebe 4bc6 6cbe d0b5 34bd
000002c0: f242 1abe 6452 31be abfd 193f 4c74 c93d
000002d0: 03f9 c6bc d57a d7bc 3e36 153d 7b66 663d
000002e0: 5d00 cdbd 7417 8abe da2c 113e ad1a 993d
000002f0: f6fc 20be af4f cd3d 6954 98bd f0d5 a33e
00000300: f1b0 883e da4d 20bf 3ed1 5a3e 0f58 913e
00000310: 07ec 8d3e 91ea 4d3e 6822 983e 816d 273e
00000320: 21c0 8c3e 9d8e 6d3d 3881 1a3d 2629 b43d
00000330: 06fc 243e b0bf 78bd 7522 7b3e d7c5 da3e
00000340: 9762 c2be 7b2b 27bd 9b55 b6bc f254 fd3c
00000350: 89a2 7e3e 2306 30be 0a30 e0bd 540b 26be
00000360: 16d6 8abe 05f1 073e 7146 153e 1902 0fbe
00000370: f5c1 6dbe a149 a4be e0ea 543e 4890 c23d
00000380: 807c 263d 1fbc 023e 9a32 42be 8401 61be
00000390: c51c a0be 374e 123d a3b5 983d 9dda 383e
000003a0: 0cf9 883d 782b 46be 8aa1 433c d253 0f3d
000003b0: 2991 24be 5f7b 17bf 60c0 5b3f b0b4 f8bc
000003c0: 961c ddbd e8c0 2fbe 72ac b1bc 3122 c3bd
000003d0: ea5d c73c 2653 743e 1daf 2dbe 5e9a 3fbe
000003e0: c356 1f3e b14b 6ebe 27b7 203d 493a 623e
000003f0: cce9 1f3e dc03 153e 7ddb 9ebc 7385 6dbd
0.05822683 -0.15218745 0.01948574 -0.028106919 0.11891743 0.034552682 0.20061055 -0.11925751
-0.14716566 0.23675919 -0.005128853 0.13503984 -0.027919533 -0.03898019 -0.17095754 -0.16094533
-0.067902 0.017289238 -0.11748226 0.010836027 0.06695279 0.1660817 -0.11829792 0.13615313
0.012443434 -0.016565176 0.07593295 -0.16743067 -0.2227112 0.2259111 0.1183759 -0.11986628
-0.14276713 0.2149048 -0.09677256 -0.23201652 0.012449329 0.07898504 0.21718177 -0.089621544
0.034958303 0.25356603 -1.0606827 1.0772471 -0.052941617 0.23852955 0.1193159 0.20037124
0.14780468 0.14367533 0.12619042 -0.06884509 -0.21680596 0.12139242 -0.21684062 0.081490315
0.03394811 0.19563769 0.25258794 -0.06657007 0.074279465 0.22203201 4.3348973e-05 -0.075295664
0.07205161 -0.1118891 0.23169127 -0.021571813 -0.21050352 -0.22639479 -0.2341264 0.061019965
0.17504942 0.20724827 0.10386732 -0.01218331 -0.14332634 -0.082159124 0.29309127 -0.23457988
-0.19703183 -0.0015646237 0.15247744 0.18286422 -0.13678063 0.17375894 -0.25518116 0.29397753
0.29954487 0.030357784 0.010086335 -0.099843085 0.32574642 0.31303555 -0.14339322 0.089445904
-0.14009172 0.14393197 0.10090812 0.0831757 -0.20044306 0.13993968 -0.07898075 0.33018145
-0.2522684 -0.30207893 0.062213674 -0.17394133 -0.09242318 0.18401755 -0.20200759 0.034397207
0.14080614 0.14495386 0.0049630725 -0.041120414 0.21979709 -0.16469991 0.38192937 -0.23491931
-0.24500406 -0.11309261 -0.058894444 -0.13393977 0.08511232 0.17136782 -0.25383815 -0.13840717
-0.21560417 -0.18471973 -0.21232761 -0.2325012 0.19466527 -0.22189014 0.20600516 0.16327319
0.2730688 0.34261376 -0.09284309 -0.014890063 0.13782245 0.09947767 0.17306861 0.16196072
0.10614993 0.15828545 0.14513962 -0.22628008 0.3395182 -0.29618472 -0.08472884 0.027319543
0.12254952 -0.10914456 0.009220984 0.18244292 -0.055160034 -0.15611166 -0.04114637 -0.04982594
-0.13102779 -0.1566989 -0.2092441 0.18173364 0.24567312 0.054259505 -0.13641796 -0.1817103
-0.084628955 -0.29571083 0.06150987 -0.14953259 0.07505447 -0.1706869 -0.23122518 -0.044118702
-0.150646 -0.17316586 0.6015269 0.09836635 -0.02428866 -0.026303688 0.036428683 0.056250077
-0.10009835 -0.26971018 0.14177266 0.07475791 -0.15721497 0.10024964 -0.07437975 0.3199916
0.26697496 -0.6261879 0.21368882 0.28387496 0.27719137 0.20109011 0.2971375 0.16350366
0.27490333 0.057997335 0.03772089 0.08796911 0.16111764 -0.060729682 0.24524863 0.42729065
-0.37965843 -0.04081295 -0.022257617 0.030924294 0.2486669 -0.17189841 -0.10946663 -0.16215259
-0.2711646 0.13275535 0.14577653 -0.13965644 -0.2321852 -0.32087424 0.20792723 0.09500176
0.040646076 0.12767075 -0.18964615 -0.21973234 -0.3127195 0.035719123 0.074565195 0.18052144
0.06688127 -0.1935252 0.011940369 0.034992047 -0.16070999 -0.59172624 0.85840416 -0.030359596
-0.10796468 -0.17163432 -0.021688674 -0.09528006 0.024336774 0.23859844 -0.16961332 -0.1871123
0.1556044 -0.23271061 0.039237168 0.22092547 0.1561653 0.14552253 -0.01939177 -0.057988595

features.0.bias f4 [256]
00000000: 68d7 5ebe 06fe ecbd 9668 6cbe 4c62 4b3e
00000010: 9c69 e6bd 2335 0ebe 2f96 a73d 68f1 d33d
00000020: d718 08bb 0cd2 91bd 238a 783e e929 16bc
00000030: 5031 113e df73 49be 1590 043e 9e2a 0b3e
00000040: 7e03 b6bd 0a64 26bd 14b6 53be 313b 543e
00000050: 5bc0 663e 3ee8 13be 4260 713d c181 4a3e
00000060: 8700 4bbd 0a78 46be 1cd0 e0bb 903c 3fbe
00000070: 271e 80be d091 333e 5f5d 943d 3c41 67be
00000080: 8b6a 093e 6c0b 8b3e 3429 81be 027f ff3c
00000090: 1ce1 17be ab15 b73d 547b 42be 6204 89bc
000000a0: b536 e53d a7a6 1abd d7e3 673d 255d 1cbe
000000b0: adb8 483e 2ab9 05be 485a d6bd 2b8a 703e
000000c0: 96ad 5a3d f345 93bd e22f 1ebe 8021 6e3d
000000d0: 200c 38bd 05ee 0b3e 2d5d 823e b84b 24be
000000e0: d094 e9bd b3bf 1cbe 7671 c53d b99a 08be
000000f0: a756 873d 0e20 39be 988e 993e 418a f33b
00000100: ce44 1fbd 69bb 883e 2ecb 6f3e 0072 02be
00000110: 66de 4ebd 05f3 383e a271 1e3d 446e a23b
00000120: 1430 083c e943 57be 725a b0be b57e 133e
00000130: 6ccb 3d3e da0d fd3d 68be 503e 6209 453e
00000140: 969d 69bd 9c9a da3d d090 30bd 8dde 013e
00000150: 95d6 423d 2fca 81be 5757 3dbe a1c3 fd3d
00000160: ae96 9dbe b10e 64be 9916 ecbd 3cb9 99be
00000170: 2202 55be 8943 323e 5712 10bd b3e2 d63d
00000180: 74fe 8fbe 6778 24be 02b8 90bb 18b4 20be
00000190: 3ec4 42be 2aaa 413e 87a4 473e 4052 83be
000001a0: b1c3 0e3e 49a0 393e 9fec 183e b335 023e
000001b0: 0a52 bcbd 7f29 8f3e 8898 683e 6ceb 943d
000001c0: 9872 07bd 95c2 223e ca94 263d 37a8 98bd
000001d0: 0ab9 6b3e ee88 90be cd2c 9bbe ecf1 493e
000001e0: 27e5 1b3e d864 66be 8d5c 053e a273 5ebe
000001f0: 1ae9 1fbe 6e1c 1f3d 570a 3b3e 9e84 433d
00000200: 59ac 653e 5bfb 713e 7b63 593e ffad 423e
00000210: 68ba 7f3d c738 c2bd c500 433e 4801 dabe
00000220: 493a de3d 0d15 94bd 7107 d03d 2542 87be
00000230: e7a5 f13d bf3f cbbd 21b8 8ebe 568a d2bc
00000240: 53a5 10be 1b73 1d3e 41a5 113e 9c13 353e
00000250: ce69 94bd eb62 243e fd86 e5bd 8e08 4e3e
00000260: 03b6 5bbd d4e5 08be 0fa4 77be 648b 233e
00000270: 7cdd 13be 1cf3 f2bd d609 27bd 3bd9 343e
00000280: 68ae 0bbe 9970 673d 8501 523d 8bf7 75be
00000290: 81fa 0dbe 85c4 bc3d d8ed 45be d6ca 51be
000002a0: ec64 3a3e d403 0f3e 10ec 8bbd 2d16 8f3d
000002b0: f09d 48bd 055a 8a3d dad0 4a3e 3b06 3dbe
000002c0: ab2b 9dbe 1c1c 8a3d b7ef c0bd 90ac 3abe
000002d0: b4de afbd abf2 eebd 3f5d f33d 6ce1 e23d
000002e0: 278d 32bd 87c0 db3c 4915 103e ec37 19bd
000002f0: 378c 46be 4579 3c3d 5af0 febd 8ff5 dbbd
00000300: e72b 81be 4bc4 8abd b8a7 873e 3fb0 3bbe
00000310: 16ae 453d 899a b83d d99e 5d3e c53f 133e
00000320: 8751 523e e404 53bd 6496 24be 8007 27bd
00000330: 3bc5 cfbc bf56 57be 267a 9f3d 11bc 88bc
00000340: 2e8c 5d3e 45ce 053e d004 153e fadb 6c3d
00000350: 708e 86bb b848 0fbe deae 48be fdab 5ebd
00000360: 7b81 32be c6f7 3ebe bc2e 91be 7e25 363d
00000370: 928b 1dbd 5f48 f53d 35bc 953d 8a80 ec3a
00000380: e7f5 03be 1855 0fbe 7ef4 71bc d7ef f6bb
00000390: 98b1 16be 1e33 dabd 509c 2ebe 7c51 24be
000003a0: bfdd 6b3e f195 80bd 35f8 333e 02cf e0be
000003b0: c3db 1e3e b409 7bbd 0fd4 e23c 3db5 7dbe
000003c0: 4ee2 5dbe b5d6 c33e 2810 203e f403 34be
000003d0: aaa0 553e 148a 5fbe 3e16 dabd ae25 e33c
000003e0: fa10 273e 4660 583d d25f 34be 8ed4 eebc
000003f0: 1100 39bd 2d59 df3c a8f4 3a3e e3b2 1ebe
-0.21761858 -0.115718886 -0.23086771 0.19861716 -0.11250612 -0.13887458 0.08182942 0.10348779
-0.0020766759 -0.071201414 0.24271445 -0.009165266 0.14178967 -0.19673108 0.12945588 0.13590476
-0.08887385 -0.04062275 -0.20674926 0.20725705 0.22534315 -0.14444062 0.05892969 0.1977606
-0.04956105 -0.19381729 -0.006860746 -0.18675447 -0.25023004 0.17536092 0.072443716 -0.22583479
0.13419549 0.27157152 -0.25226748 0.031188492 -0.14831966 0.0893968 -0.18992358 -0.016725723
0.11192075 -0.03775659 0.05661377 -0.15269907 0.19601698 -0.13058916 -0.104664385 0.23490207
0.0533882 -0.07191076 -0.15447953 0.058137417 -0.04493344 0.13665016 0.25461712 -0.1604451
-0.11405337 -0.15307502 0.096407816 -0.13340272 0.066083245 -0.18078634 0.29991603 0.0074322526
-0.038883977 0.26705483 0.2341735 -0.127388 -0.050505064 0.18061455 0.038682587 0.0049569923
0.008312244 -0.21022 -0.34444004 0.14403804 0.1853463 0.123561576 0.20385134 0.1924186
-0.05703505 0.10674021 -0.043106854 0.12682553 0.047567923 -0.25349566 -0.18490349 0.12390829
-0.30779022 -0.2227123 -0.11527748 -0.30024135 -0.20801595 0.17408575 -0.03517374 0.10492458
-0.2812382 -0.16061555 -0.0044164667 -0.156937 -0.19020173 0.18912569 0.19496356 -0.2564869
0.13941838 0.1812755 0.14934014 0.12715797 -0.09195335 0.27961347 0.22714436 0.07271466
-0.03306827 0.1589454 0.04066924 -0.074539594 0.23019806 -0.2822947 -0.30307618 0.19721192
0.15224133 -0.22499406 0.13023587 -0.21723798 -0.15616265 0.038845472 0.18265663 0.047733895
0.22429027 0.23631041 0.21229355 0.19011687 0.06243363 -0.09483486 0.19043262 -0.42579103
0.10850961 -0.072305776 0.10157669 -0.26417652 0.117992215 -0.09924268 -0.27874854 -0.02570073
-0.14125566 0.1537594 0.14223196 0.17683262 -0.07246743 0.16053359 -0.112073876 0.20120451
-0.053640377 -0.13368922 -0.24183677 0.15971142 -0.14439958 -0.11862776 -0.040780865 0.17660992
-0.1364075 0.056503866 0.05127098 -0.24020211 -0.13865091 0.092171706 -0.19329011 -0.20487532
0.18202561 0.13966304 -0.06832135 0.069866516 -0.048978746 0.06755451 0.19806233 -0.18459408
-0.3069738 0.06743643 -0.09420722 -0.1822989 -0.08587399 -0.11667379 0.1188302 0.11078152
-0.043591645 0.026825203 0.1407062 -0.037406847 -0.19389425 0.04601409 -0.12448187 -0.10740196
-0.25228807 -0.06775721 0.26495147 -0.18328951 0.048261724 0.0901385 0.21642627 0.14379795
0.20538913 -0.051518336 -0.16072994 -0.040778637 -0.025362602 -0.21029185 0.0778697 -0.01669124
0.21635506 0.13066967 0.14552617 0.057826973 -0.0041063353 -0.13992584 -0.19597957 -0.05436324
-0.17432205 -0.18649206 -0.28355968 0.04446935 -0.038463183 0.11976694 0.07311288 0.0018043679
-0.12886773 -0.13997304 -0.014767764 -0.0075359154 -0.14716184 -0.10654281 -0.17051816 -0.16046709
0.23033808 -0.06278599 0.17575152 -0.43907934 0.1551352 -0.06128855 0.027689008 -0.24776168
-0.2166836 0.38249746 0.15631163 -0.17579633 0.2086207 -0.21830016 -0.106487736 0.027727928
0.1631507 0.05282619 -0.17614678 -0.029154088 -0.04516608 0.027264202 0.18257391 -0.15497927

features.2.weight f4 [256]
00000000: 4581 6d3f 3ef9 6f3f e614 7f3f 10e2 6f3f
00000010: 5e1f 663f 4d89 703f b22c 723f f2ef 683f
00000020: 32b7 623f d55a 693f 3c23 713f 1cf5 823f
00000030: 2c19 7b3f 2fa7 863f 72b3 6b3f a9b6 8d3f
00000040: 8d97 663f abcb 6c3f a47b 683f ca2b 733f
00000050: 7629 6d3f a1b2 723f f282 9d3f 4097 693f
00000060: 21b9 693f 5ab3 6d3f 7398 733f 7315 953f
00000070: 17a0 703f 5787 693f c3c2 943f f86d 943f
00000080: 7fea 913f 566d 863f f1f5 6a3f eaf1 6b3f
00000090: 0e7a 6f3f 8f29 843f 3f3f 803f 0d20 6c3f
000000a0: b53b 8e3f 5190 863f 0772 693f 80fe 9b3f
000000b0: 4e96 683f d89a 893f 7957 9f3f 8a78 a23f
000000c0: 99f6 663f 07c4 7c3f c64c 683f 1d39 6e3f
000000d0: 46df 743f 004e 6b3f 467b 893f 3e47 8c3f
000000e0: c11c 703f bca7 673f 1a9a 8b3f a5bc 713f
000000f0: 0ca2 713f 4124 6d3f e4d6 8d3f 97d2 693f
00000100: 9c72 a53f 0949 ac3f d01e 693f f0d7 683f
00000110: 9dfb 713f 86ef 693f 257e 793f eb12 873f
00000120: e923 6c3f 67f7 9c3f 5e0d 7e3f 95c6 a83f
00000130: 452f 953f a475 6f3f 1cfb 6d3f 9606 833f
00000140: da13 723f 8df5 5d3f 8f01 6e3f b83e 703f
00000150: e800 813f c79b 7f3f 66da 643f 5660 723f
00000160: fa75 6f3f 0313 6b3f c0eb 703f 0dd0 983f
00000170: f18f 903f d0f1 a63f 7b61 723f d9ae 763f
00000180: 6bae 803f 6a5a 6f3f 30be 6a3f d404 6c3f
00000190: 4ba8 8b3f b2fe 883f c4db 6a3f fb42 8e3f
000001a0: 8581 833f 25de 693f 41ec 703f 18ff 713f
000001b0: 86c3 683f 7348 683f 17f9 6c3f 4e55 813f
000001c0: 8b08 6c3f 211a 7f3f 4e02 7f3f d099 7c3f
000001d0: 30da 993f 152a 813f 8071 733f ee28 673f
000001e0: 76d2 8f3f f2e6 7f3f 56b9 713f 58a8 8d3f
000001f0: fe7d 6b3f ff7a 863f 98f0 6f3f f669 763f
00000200: dff3 693f 5835 923f b656 6c3f e305 803f
00000210: b9c4 6f3f d3e9 6a3f e623 6c3f 340f 703f
00000220: 2343 713f fe66 633f a92f 673f 1c4b 953f
00000230: f553 683f ca91 823f bef6 723f 05ad a03f
00000240: cd81 793f 1642 6d3f 2f34 883f c861 683f
00000250: 2b2e 6b3f 6941 693f 2782 823f c7ad 6e3f
00000260: b173 753f fef9 6c3f e9d0 7b3f baed 883f
00000270: 40a2 8e3f 9d72 673f 14d8 6e3f 7ed7 723f
00000280: 5f82 6c3f 08b0 813f ef51 893f edb9 723f
00000290: 2be7 703f eb54 683f dbd8 7b3f 4aab 913f
000002a0: 8269 703f 445d 9b3f 2a5a 703f 747a 6e3f
000002b0: bfaa 753f f8a9 823f dc28 673f 4caf 693f
000002c0: 8630 763f e3e3 673f f7f4 713f 4e26 6c3f
000002d0: a497 6d3f 02cf 793f 0db4 6c3f 1fda 6d3f
000002e0: 1014 863f a3e1 9c3f 9436 6e3f 4c2c 873f
000002f0: b8c9 8e3f b12c 713f fde5 6d3f 1ad8 643f
00000300: 2af7 753f 3026 903f aefa a13f 206b 6a3f
00000310: 6c04 6c3f cda4 803f ddc7 893f 20f4 6a3f
00000320: 4cb3 6f3f 07f0 6e3f 49de 683f 34f6 873f
00000330: 597d 6a3f 899c 6b3f 89e0 6c3f 7f71 923f
00000340: b7b4 a03f ea18 6c3f c71e 6a3f a4ed 6c3f
00000350: d2df 783f dcfc 693f 9aa5 6c3f 85d3 6e3f
00000360: 72b8 793f 9450 6c3f 50ad a83f 3905 883f
00000370: d306 6a3f ce4d 6a3f fd16 703f 442e 6d3f
00000380: 5029 6e3f 2b4b 883f fb42 713f 294d 793f
00000390: 921d 683f 1d7a 803f 4035 683f 2741 9a3f
000003a0: f3e8 673f c818 783f a5e8 8c3f 9a16 6c3f
000003b0: 080b 6d3f ce0d 6d3f d666 b93f b716 853f
000003c0: 62f7 693f 37f7 8e3f f154 6d3f f281 883f
000003d0: 916b 653f ae54 6f3f 581c 773f 36d5 6d3f
000003e0: 2fa1 723f f2f5 963f aa8e 753f c2eb 6f3f
000003f0: dc94 7f3f 73cd 6e3f 58b2 6c3f 19a1 6b3f
0.92775375 0.9373969 0.99641263 0.9370432 0.8989161 0.93959504 0.9459945 0.9099113
0.88560784 0.91154224 0.9419439 1.0231051 0.98085284 1.051977 0.92070687 1.1071368
0.90075 0.9249827 0.9081366 0.9498869 0.9264139 0.94803816 1.2305586 0.91246414
0.9129811 0.92851794 0.95154494 1.1647171 0.9399428 0.9122214 1.1621937 1.159606
1.1399688 1.0502117 0.91781527 0.92166007 0.93545616 1.0325183 1.0019301 0.92236406
1.1111971 1.0512792 0.91189617 1.2187042 0.90854347 1.075038 1.244857 1.2693036
0.9022003 0.98736614 0.90742147 0.930559 0.9565319 0.91915894 1.0740745 1.0959241
0.93793875 0.9049032 1.0906403 0.94428474 0.9438789 0.92633444 1.1081204 0.9133696
1.2925601 1.3459789 0.9106264 0.90954494 0.94524556 0.9138111 0.97458106 1.0552648
0.92242295 1.2263001 0.99239147 1.3185602 1.165505 0.9353888 0.9296129 1.0236385
0.9456154 0.86702806 0.9297113 0.938457 1.0078402 0.9984707 0.8939575 0.94678247
0.9353939 0.91825885 0.94109726 1.1938492 1.1293927 1.3042545 0.94679993 0.96360546
1.0053228 0.93497336 0.91696453 0.9219487 1.0910734 1.0702727 0.91741586 1.1114191
1.0273901 0.9135459 0.94110495 0.9452987 0.90923345 0.9073555 0.9256758 1.0104158
0.92200536 0.99649245 0.9961289 0.986722 1.201971 1.0090967 0.9509506 0.9029683
1.1236103 0.9996177 0.94423425 1.1067 0.91989124 1.0506285 0.9372649 0.96255434
0.9138774 1.1422529 0.9231981 1.0001796 0.9365955 0.9176304 0.92242277 0.937732
0.9424307 0.8882903 0.903071 1.1663547 0.9075311 1.0200741 0.9490775 1.2552801
0.97463685 0.92678964 1.0640925 0.907742 0.9186732 0.9111543 1.0195969 0.93233913
0.95879656 0.9256896 0.98365647 1.0697548 1.1143265 0.9040926 0.9329846 0.94860065
0.9238643 1.0131845 1.0728129 0.9481495 0.94102734 0.90754575 0.9837777 1.1380398
0.9391099 1.2137837 0.9388758 0.931556 0.9596366 1.020812 0.9029672 0.91283107
0.9616779 0.905821 0.9451441 0.9224595 0.9280951 0.97581494 0.92462236 0.9291095
1.0474873 1.2256359 0.9305203 1.0560393 1.115531 0.9420882 0.9292906 0.89392245
0.9608027 1.1261654 1.2654626 0.9156971 0.9219425 1.0050293 1.0764118 0.91778755
0.9363296 0.93335 0.9096418 1.062201 0.91597515 0.9203573 0.92530113 1.1440886
1.255515 0.92225516 0.9145321 0.9255011 0.9721652 0.9140146 0.9244019 0.93291503
0.97547066 0.9231045 1.3177891 1.0626594 0.9141666 0.9152497 0.9378508 0.9264872
0.9303179 1.064794 0.9424283 0.9738336 0.9067012 1.0037266 0.90706253 1.2051133
0.9058983 0.96912813 1.1008497 0.9222199 0.9259496 0.9259919 1.4484508 1.0397557
0.913931 1.1169194 0.92707735 1.0664656 0.8961726 0.93488586 0.96527624 0.9290346
0.94777197 1.1793807 0.95920813 0.9371911 0.99836516 0.9328224 0.9245963 0.9204269

features.2.bias f4 [256]
00000000: cadb 973d 2c00 813d 3bdd 53bd c8bc 833d
00000010: 0bf1 cf3d 54c1 93bd 99f8 90bd 0653 cdbd
00000020: 5856 ec3d 6dfd c5bd 31dc 753d 0246 11bd
00000030: 1df5 4ebd 451f b93c eb9e b3bd 9306 b8bc
00000040: a67d ca3d ce69 993d 101b bc3d 9469 9ebd
00000050: 3a9e 993d 8c55 a1bd b10f 42bc efb2 b73d
00000060: 7c28 b43d e11f a6bd 0e79 88bd 1ca2 46bc
00000070: 4bcf 98bd 8c78 b83d 129c f5bc d0d5 e9bc
00000080: 0b6d 163d bb29 943c 2bc0 a63d ab04 a03d
00000090: 5ec9 9fbd 1104 fbbc 4ba8 1dbd 8bb6 a33d
000000a0: aae7 e6bc a171 0d3d d28f b23d 9384 a43c
000000b0: 6410 ba3d 1e54 c9bc c0c4 a93b 313a 6b3c
000000c0: 39c0 cb3d 90d7 5bbd df77 bd3d e6b1 8b3d
000000d0: 5dba 603d 6186 a83d c5fa fdbc fb6d f43c
000000e0: 3271 843d cc96 c43d 01ab b13c 197c 6c3d
000000f0: 2111 a6bd d2af 953d 7d91 a33c b4ea b13d
00000100: 4ee8 5c3c 69ab 69bc 9032 bb3d 0722 bc3d
00000110: 9749 683d 7fcf ac3d b938 22bd 9789 cb3c
00000120: 9db9 9d3d 561e 59bc f6a6 37bd 3c58 183c
00000130: e68c 1ebc 070a a7bd a502 923d 0c04 583d
00000140: a9a2 82bd 88ec 093e c8a3 923d 6dd9 823d
00000150: 3736 21bd 1bd0 143d 1f8c db3d c777 5b3d
00000160: 7a07 adbd af9b a93d 304d 783d cf72 9f3c
00000170: c1f6 9ebc aaf8 cd3b c1b0 9cbd 7232 7b3d
00000180: 9d20 1ebd c7f0 853d fa2f babd 79eb a13d
00000190: a1e0 afbc ed94 c23c 4bd8 babd bac2 a13c
000001a0: 89f6 fb3c 109c b13d 3775 98bd 6f16 9fbd
000001b0: 22a8 bc3d 4a1f b9bd a77e 973d bcfd 2fbd
000001c0: b7de a43d 9448 43bd fd99 59bd e200 61bd
000001d0: 2fb2 21bc ce1f 25bd 4032 93bd 411a c93d
000001e0: c384 843b 0fdd 40bd 2fe6 81bd 2d26 15bd
000001f0: 22f4 9ebd ef26 1cbd d9e0 823d e4f1 813d
00000200: ac64 b03d d468 643c ce26 afbd 869c d63c
00000210: 1136 a5bd 3841 af3d a969 9e3d 8000 9dbd
00000220: aa00 723d 102c e93d 1fca c83d 489f c2bc
00000230: d6be b73d 1c92 4abd aecf 8cbd ef22 b2bc
00000240: b775 71bd 663c 9b3d 19cb ef3c d8a2 c23d
00000250: 6e41 ab3d 7513 bd3d 6e44 2dbd d8b6 8a3d
00000260: 944a 343d 404d 9a3d dbab 77bd 6828 06bd
00000270: 1b53 1e3b 7c29 c3bd 08db 8b3d 8e29 5a3d
00000280: 107f a03d edb5 0ebd 3f3a b53c 4fea 633d
00000290: 7534 803d e25d c13d 8cc1 3fbd 9feb a83c
000002a0: 5076 7b3d bac9 8cbc 7863 803d bf8a 8c3d
000002b0: 2790 96bd 380f 31bd 7feb c53d a89a b33d
000002c0: 6303 8dbd 1996 c03d 457c a1bd c148 a23d
000002d0: 8f44 943d d743 44bd 6e69 9e3d 850f 943d
000002e0: 945b dabc 3274 b6bc 39d6 923d 6a68 33bd
000002f0: a429 a83c 7d90 6e3d a3d3 913d 5121 ddbd
00000300: 89a7 8bbd 861c c43b 611d 5fbc a07e af3d
00000310: 24c7 b1bd 21de 28bd eed0 ef3c 6cb7 a93d
00000320: 8120 853d 36c7 9abd 541b bd3d 4578 06bd
00000330: c339 ac3d a091 a53d 04fd a03d ca37 d83c
00000340: 91d0 2fbc 1e76 a43d 1a53 ae3d 6933 9a3d
00000350: f390 87bd f502 b13d b091 a13d d717 8b3d
00000360: 77ba 3abd 9352 afbd fd52 63bc 0824 dabc
00000370: 536f b23d 98a1 b03d 2eae 803d bf0a 983d
00000380: b944 a3bd bc38 ff3c 9b60 733d d99c 87bd
00000390: 05d1 bd3d 50f7 34bd 250b bb3d f61a 2bbb
000003a0: cceb c13d 3ebd 68bd c44d 883c 73af b9bd
000003b0: a9d5 973d e215 973d 4a15 38bb d768 32bd
000003c0: 69d6 b03d b6a5 a93c 275d 983d a32e bb3c
000003d0: 4025 d73d f930 8a3d 82c7 98bd 9e37 943d
000003e0: a709 5b3d d5e9 e43c 470e 81bd 1618 a1bd
000003f0: 00a5 4abd 4be1 8c3d 1226 9c3d af2f a93d
0.07414968 0.06298861 -0.051724654 0.064324915 0.10153397 -0.07214609 -0.07078666 -0.10025601
0.11539906 -0.09667478 0.060024444 -0.035467155 -0.050526727 0.022597918 -0.087705456 -0.022464072
0.09887247 0.07490884 0.09184849 -0.07734981 0.075008824 -0.07877645 -0.011844561 0.08969676
0.08796784 -0.08111549 -0.06663714 -0.012123611 -0.07461413 0.090073675 -0.029981647 -0.028544337
0.036725085 0.018086305 0.08142122 0.0781339 -0.078020796 -0.030641587 -0.038490575 0.07993802
-0.028186638 0.034532193 0.08718838 0.020082748 0.090851575 -0.024576243 0.005180925 0.014357136
0.09948773 -0.053672373 0.09251379 0.06821041 0.05486523 0.08228756 -0.031003365 0.029837599
0.06466903 0.09599075 0.021687986 0.057735536 -0.08108736 0.07308926 0.019966835 0.08687344
0.01348312 -0.014262059 0.091405034 0.09186178 0.056710806 0.08438014 -0.039604876 0.024845881
0.077014185 -0.013251862 -0.04483696 0.00929838 -0.0096771475 -0.081562094 0.07129411 0.052738234
-0.06378681 0.13469136 0.07160145 0.06389127 -0.039358344 0.036331277 0.10720085 0.053581025
-0.08448692 0.082816474 0.060620487 0.019463925 -0.01940477 0.0062857466 -0.07650901 0.061327405
-0.03860532 0.06540065 -0.09091182 0.07906241 -0.021469416 0.023752654 -0.09123286 0.019746173
0.030757206 0.08672345 -0.07444232 -0.07767951 0.09211756 -0.09039171 0.07397204 -0.04296659
0.08050292 -0.047676638 -0.05312537 -0.054932483 -0.009869142 -0.040313534 -0.07187319 0.09819461
0.0040441467 -0.047085818 -0.06342732 -0.03641336 -0.077614084 -0.038123067 0.063905425 0.06344965
0.08612952 0.013941009 -0.08552323 0.026197683 -0.08066953 0.08557361 0.07734997 -0.07666111
0.059082665 0.113853574 0.098041765 -0.023757592 0.08971946 -0.049455747 -0.06875549 -0.021745173
-0.058950152 0.075798795 0.02927165 0.09503716 0.08362089 0.09232227 -0.042301588 0.06773156
0.044016436 0.075342655 -0.06046663 -0.03275338 0.0024158421 -0.09529397 0.06828886 0.053262286
0.07836735 -0.034841467 0.0221225 0.055643376 0.062600054 0.09441735 -0.04681544 0.020620165
0.06139213 -0.017186034 0.06268972 0.06862401 -0.07351714 -0.043227404 0.09664058 0.08769733
-0.068854116 0.09403629 -0.07885031 0.07924033 0.07239639 -0.04791626 0.07734953 0.072295226
-0.026654996 -0.022272203 0.07169766 -0.04380075 0.020527668 0.058243264 0.071204446 -0.1079737
-0.06819064 0.0059848456 -0.013617844 0.08569074 -0.08680561 -0.041227464 0.02927443 0.08286938
0.0650034 -0.07557528 0.09233728 -0.03282954 0.08409455 0.080844164 0.07860759 0.02639379
-0.010730878 0.080303416 0.08511944 0.07529337 -0.06619444 0.08643142 0.07889116 0.067916565
-0.045587983 -0.08560672 -0.013874766 -0.02662851 0.0871264 0.086245716 0.06283222 0.07423925
-0.07972092 0.031154983 0.059418302 -0.06621713 0.09268383 -0.044181168 0.09132985 -0.00261086
0.09468803 -0.0568211 0.016638644 -0.090666674 0.07413799 0.07377221 -0.002808886 -0.043557014
0.086346455 0.0207089 0.074396424 0.022849387 0.10505152 0.06747622 -0.07459928 0.07237171
0.053476002 0.027943531 -0.06301551 -0.07865922 -0.049473763 0.06878909 0.07624449 0.08261048

features.4.weight f4 [128, 256]
00000000: 45c0 44bd ba29 823c 0d08 8f3c 0049 65bb
00000010: a266 e33c 1a55 b03c 7c5a 1bbd 403a 81bd
00000020: 5d94 bcbc a0ad 07bd b558 0ebd b7f6 863c
00000030: f82a b53c 6382 033d e30c 77bd 6be3 883d
00000040: 4855 e63c 8b07 2c3d fd55 07bd 415d d5bc
00000050: 491b ffbb b1b1 e23c d542 91bd 831f c63c
00000060: fd97 d13b 3d38 8fbd 9337 d73b f19b 87bd
00000070: a671 4abd 0cb4 fbbc 3d92 713d 6f50 353c
00000080: a286 3ebd 8fac 85bd 7ec3 143c 45d5 12bc
00000090: 8c1c 61bc 041c 26bd 21d7 b9bc e9ed 57bd
000000a0: 166d cbbc 10a1 a6bc b385 3d3c 03f4 39bc
000000b0: cfbd 493d c79f 1f3d 71aa 883c 0367 01bd
000000c0: a335 b6bc 112e dd3c 1047 2cbd ab90 b33c
000000d0: 0ba3 fdbc 53a9 10bd b01d bf3c c1c9 12bd
000000e0: cf9f 2ebd a68d 273d 7f45 013d 2cc3 4abd
000000f0: 9c43 3f3c 5eb6 493d 0806 9f3c 76af 873d
00000100: 7627 723d a1bf 233d c695 da3b a1a8 65bc
00000110: 3edc 3e3d 02be b5bc 230a 6fbd 09e9 073d
00000120: 7574 c1bb 2e19 16bb c0bb 643c c20a 743b
00000130: 6a6a 22bd a321 debc 77b4 803d 8c6f e73b
00000140: ad85 853c 1715 0dbc 64d3 593d 044f 3b3d
00000150: d65d 0e3c e853 13bc db01 79bc 312e 863d
00000160: 234a 583d 9a40 bbbc c2dc be3c e929 dc3c
00000170: c45c 4b3c c851 82bd 51a7 2abd 1dcb 95bc
00000180: 53ab 78bc d527 75bd 7742 153d cba9 0cbd
00000190: c8bb 0dbd 7521 32bd 6270 07bc 08eb 30bb
000001a0: 2f8f 61bd 225e 083d a2b2 963c 2194 663c
000001b0: f7cc dd3c 37d6 37bd e5b6 ec3c d679 5f3d
000001c0: f6c9 943c 1632 31bd c018 09bc fa83 333c
000001d0: f012 52bd 5ce7 4b3d d579 dc3b 9e30 1fbd
000001e0: 03ce 16bd 7980 233d 7068 493b 1dcf 423d
000001f0: 08c3 d33a d1ca 42bd 328f 833d 5ffe f83c
00000200: cc3f 7b3d af77 a0bc 79b3 1ebc d9c2 4d3d
00000210: 044b 643a 1a76 55bc 6007 ce3c 18ec 75bd
00000220: 0576 893d f8ae a6ba 3b0c 413d 59b2 98bc
00000230: 2c30 92ba 50a5 d5ba c0c1 88bd beaa 70ba
00000240: 6c1d 6c3d b2fc bc3a 2e3e 8cbc ea70 f8bc
00000250: 7c07 733c 8f21 b6bc 8858 f2bc fac0 1a3d
00000260: e60a 2fbc b249 223c cd89 82bd 14e1 d03a
00000270: 0c83 9bbc 1be1 10bd 417f 113c de88 4d3d
00000280: 808e 423d 98d1 1bba 43b2 813d 56a6 38bd
00000290: 9e56 793d 89f0 633d 14f8 9ebc 28d3 8b3d
000002a0: 5574 1c3d ac1b 3b3c 24a8 87bc e88f 903d
000002b0: c14e 113d 1955 413d 0828 cabb 1ba8 fa3c
000002c0: 225c 72bd 1352 92bb 890a 1b3d 7455 bbbc
000002d0: b649 86bc 1cc4 293d 2a0d f9bc 34f6 03bd
000002e0: f49a a7bd 03d2 70bc 5902 1bbd 412d 3dbc
000002f0: 34e6 913d 90d2 8cbc 15fd 3d3d 2f16 15bd
00000300: 9239 6dbb 3573 663b e341 ffbd 130c 8a3d
00000310: e06a dcbc 457b 093d 51f7 3dbd 29de 5e3c
00000320: 8f73 4bbd fc2e 483d 8f48 d83c 39f4 ccbc
00000330: 1c6d 173d 6f91 4abd 9497 81bc f99b 823d
00000340: 1c4a c23c f7f0 fabc e4f9 03bc b65a f33c
00000350: 5d9b 483d b55e 06bd ef17 233c c8ee 89bc
00000360: 506f 7a3d 0112 80bd 8c12 983d ea00 aa3c
00000370: c2c0 573b ae1e 91bc 0d3e 0f3d b095 8dba
00000380: b681 83bd 080b c5bb 3bbe 24bd 3156 35ba
00000390: 48ff be3b 6ad2 8ebd cee3 31b9 625c ccbc
000003a0: 6c20 f33c 6aec f03c 2a35 0fbd 1ec8 4abc
000003b0: 48c4 09bd 261e 50bc 0e51 c0bc c822 ab3b
000003c0: f648 293d b9f0 2dbd 0184 d83c 8ca3 e13b
000003d0: 4be0 e1bc bb1d b63c 9a62 1b3d 1b79 783d
000003e0: 2d9b 133d 5ac4 123d 717e 4abd 22e1 903b
000003f0: ede7 68bd 3912 adbb e93d 833d febf 183d
-0.048034925 0.015889037 0.017459894 -0.0034986138 0.0277589 0.021524955 -0.03792809 -0.063099384
-0.023019964 -0.033124566 -0.034752566 0.016475065 0.022115216 0.03210677 -0.060315024 0.066840015
0.028116837 0.04199938 -0.03304099 -0.026045443 -0.007785235 0.02767262 -0.07092825 0.024184948
0.0063962922 -0.069931485 0.0065679043 -0.0662154 -0.04942479 -0.030725501 0.058977354 0.01106654
-0.046515115 -0.065270536 0.009079812 -0.00896198 -0.013739716 -0.04055406 -0.02268559 -0.052717123
-0.02483229 -0.020340472 0.011567521 -0.011349681 0.04925328 0.038970735 0.016682835 -0.03159238
-0.022242373 0.026999505 -0.042059958 0.021919569 -0.030961534 -0.03531773 0.023329586 -0.03583694
-0.042632874 0.04090657 0.031560417 -0.049502537 0.011673834 0.049246185 0.019412056 0.066252634
0.059119664 0.039977673 0.0066706864 -0.014017255 0.046596758 -0.02218533 -0.058359277 0.033181224
-0.0059037753 -0.0022903192 0.013960779 0.0037237857 -0.039652266 -0.027115649 0.06284421 0.007062858
0.016299093 -0.008610985 0.053180113 0.045729652 0.008689364 -0.008992173 -0.015198196 0.06551779
0.052805077 -0.022857953 0.023298625 0.026875453 0.012412254 -0.06363255 -0.04166347 -0.018285329
-0.015177566 -0.05985244 0.03644034 -0.034341615 -0.03460291 -0.04348894 -0.00826654 -0.0026995558
-0.05506819 0.033292897 0.018395726 0.014073403 0.027075274 -0.044882026 0.028895805 0.05455955
0.018162709 -0.043260656 -0.008367717 0.010956759 -0.05128759 0.04978119 0.0067283907 -0.038864724
-0.03681756 0.039917443 0.0030732416 0.0475608 0.0016156146 -0.047556702 0.06423797 0.030394731
0.06134014 -0.01958832 -0.009686344 0.05023465 0.0008708688 -0.013028646 0.025150001 -0.06003961
0.067119636 -0.001271694 0.047130805 -0.01863973 -0.0011153272 -0.0016299877 -0.0667758 -0.0009180716
0.057645246 0.0014418571 -0.017119493 -0.03032728 0.014833327 -0.022232799 -0.02958323 0.037781693
-0.010683751 0.009905266 -0.0637394 0.0015936219 -0.018983386 -0.035370927 0.008880437 0.050179355
0.04749918 -0.00059440127 0.06332829 -0.045080505 0.06087362 0.055649314 -0.019405402 0.06827384
0.03819688 0.011420172 -0.016559668 0.07058698 0.035475496 0.047200296 -0.006169323 0.030597737
-0.059169896 -0.0044653504 0.037851844 -0.022867896 -0.01639257 0.04144679 -0.030401785 -0.03221722
-0.08183852 -0.014698508 -0.037844036 -0.011546434 0.07123986 -0.017190248 0.046383936 -0.03639811
-0.0036197645 0.0035163884 -0.12463739 0.06740584 -0.02690643 0.033564825 -0.046378437 0.013602772
-0.049670752 0.048872933 0.026401786 -0.025018798 0.03696929 -0.049455103 -0.015819348 0.06377406
0.023716979 -0.03063248 -0.008055184 0.02970634 0.04897629 -0.032805163 0.009954437 -0.016837493
0.061141312 -0.06253434 0.074254125 0.020752389 0.003292129 -0.017714825 0.034971286 -0.0010802057
-0.06421225 -0.006013278 -0.04022048 -0.00069174456 0.0058287717 -0.06973727 -0.00016964899 -0.024946395
0.029678546 0.029409606 -0.03496281 -0.012376813 -0.033634454 -0.0127025 -0.02347615 0.005222652
0.041329347 -0.0424659 0.026430132 0.0068859514 -0.027572772 0.022230973 0.03793583 0.06066237
0.03603666 0.035831787 -0.04943699 0.004421369 -0.056861807 -0.0052817133 0.06408293 0.037292473

features.4.bias f4 [128]
00000000: d957 d93c 50e4 bebc fbd2 973c a1d5 233c
00000010: 0f69 cb3b 662c b7bc 8ce1 a5bc ac94 6bbd
00000020: 5658 b2bc afea 293d 21d3 1a3c 8fb0 8fbd
00000030: 5c28 51bd 0b86 873d 78e5 583d 8b2d 183d
00000040: ce0c 2abd 7b66 d9bc 7c1f 09bd 2e88 573a
00000050: 6a64 123c 5762 fb3c 1dfc 7d3c 6c4c c83c
00000060: 1f00 b13c 3f00 dbbc 6387 82bc 7216 f93c
00000070: d7cb 283d 5ed8 2bbd 34cc 843d 8e27 153d
00000080: 6a6f 0a3d 7885 48bd 1f77 723d 20a1 3ebc
00000090: cdfc 10bd d025 0a3c 7124 ecbc b7f1 073c
000000a0: ce98 433c 2f0d 0bbd 6be3 21bd 44f1 e83c
000000b0: f4dc e1bc 7821 46bd f77e 573d b06f 523d
000000c0: 0f58 66bd 330f 4e3d f68d 303d 9ea2 f73c
000000d0: fb88 983b e831 2cbd 6b5f 813c 256f 983b
000000e0: 58fc d13b 9f8d bbbc f65b f83c d9a1 0fbc
000000f0: 4a47 e33b 9bf4 8dbb 5799 d23c cacf 42bc
00000100: fd2d 57bd a9ab 8fbc 3cd8 29bb ae7d 543d
00000110: 48fd 213d 6cf2 5dbc 7c9d 873c 1a96 f63c
00000120: 7446 b0bc 6a54 c5bc 99b9 a93c 962b 47bd
00000130: 0c4e 243c 2251 633d 3204 4e3d 4f02 353d
00000140: 4412 04bd 1eba 01bd 33d2 c93b 53a3 13bd
00000150: 0cc8 cfbc 033f 30bc ea71 4e3d 62a2 2d3d
00000160: 0c2e 7dbb a253 41bc 53ca 373c 24ae 553d
00000170: 3979 98bd e063 ebbc 81de 933c 49cd 85bd
00000180: 191e 85bc 827e 68bd 9874 483d 9306 39bb
00000190: aa81 7abd 6dec 29bd b62e 5dbd c294 76bd
000001a0: f8f6 16bd c5a5 043d 021d 063c 50f0 d23c
000001b0: 98ab 0e3b f3af 0abc e496 5a3d 49fa adbc
000001c0: c721 df3c 1962 4f3d 773a a53c fa9a 13bd
000001d0: ebe7 38bd 209b 8fbd 94f0 6e3d 3b2f 8dbd
000001e0: be74 69bd 69d5 0bbc 1150 c23c 30ff 08bd
000001f0: e34f e6bc fd18 6dbb 5398 233d b66c 5a3d
0.026531147 -0.023302227 0.01853322 0.009999664 0.0062075923 -0.022360038 -0.02024915 -0.05751483
-0.021770637 0.041483577 0.009449751 -0.07016098 -0.05106388 0.066173635 0.052953213 0.03715281
-0.041516118 -0.026538124 -0.03347729 0.00082218915 0.008935073 0.03068654 0.015502003 0.024450503
0.021606503 -0.026733516 -0.015933698 0.03040621 0.04121002 -0.04195439 0.06484261 0.036414675
0.03379766 -0.04895541 0.059195634 -0.011635095 -0.03539734 0.008431867 -0.02882597 0.008297375
0.011938287 -0.03394812 -0.039523523 0.028435357 -0.027571179 -0.048371762 0.052611317 0.051376045
-0.056236323 0.050307464 0.043104135 0.03022891 0.004655001 -0.04203978 0.01579257 0.0046519213
0.0064082555 -0.022894679 0.030317288 -0.008766615 0.0069359886 -0.0043321378 0.025707884 -0.011890361
-0.052534092 -0.017537909 -0.002591624 0.05187767 0.03954819 -0.013546567 0.016554587 0.03010087
-0.02151797 -0.024088103 0.020718383 -0.04862555 0.010028373 0.055497296 0.05029697 0.044191655
-0.032243982 -0.031671636 0.006159091 -0.03604443 -0.025363944 -0.010757211 0.050401606 0.04239119
-0.0038632182 -0.011799725 0.011217671 0.052168027 -0.074449964 -0.028734148 0.018050434 -0.06533296
-0.016249703 -0.056761272 0.048939317 -0.0028232678 -0.061158814 -0.04148524 -0.053999625 -0.06020046
-0.03685662 0.032384653 0.008185627 0.025749356 0.0021769758 -0.008464801 0.053366557 -0.02123751
0.027237786 0.050630663 0.02016948 -0.03603647 -0.04514305 -0.070120096 0.058334902 -0.06893774
-0.0569961 -0.008534768 0.02371982 -0.03344649 -0.028114265 -0.0036178224 0.03994019 0.05332633

features.6.weight f4 [128]
00000000: d784 7c3f dcad 6b3f e8e8 6d3f 6171 833f
00000010: bcad 803f be87 7f3f 685b 753f 481f 743f
00000020: 17ce 733f 3340 7a3f 5b32 753f ded0 773f
00000030: 7507 7d3f d7be 7d3f e670 7f3f 1da0 743f
00000040: 8ee2 793f 85fa 6a3f 1e84 6b3f ba4b 793f
00000050: 88fb 7d3f 1a70 743f 7b83 833f 14e9 7a3f
00000060: 49ea 6d3f 76f1 713f a0a5 763f 8ab4 7a3f
00000070: 81d4 7d3f 221e 733f 44c6 6d3f c11c 793f
00000080: f2d0 7b3f 8d55 7d3f 8cc7 813f 3a0c 763f
00000090: 1df8 743f 20e0 7c3f e4dd 723f 46c5 793f
000000a0: dec5 743f 6300 6e3f 0c15 6c3f b32a 8a3f
000000b0: 844e 783f eb0a 773f 6873 843f 4ff9 713f
000000c0: 3b48 7f3f 9870 7b3f f9ee 793f 7494 783f
000000d0: 6f1e 7a3f ec33 733f e3a5 743f 283a 783f
000000e0: fec4 773f ca02 783f 690a 833f 02dd 773f
000000f0: 7c73 753f ed72 853f ef86 753f 9425 7a3f
00000100: f49a 7a3f a910 7e3f 37db 7b3f 2fc7 803f
00000110: 5a97 723f 40fa 853f 6bd0 743f 1c91 723f
00000120: 0183 7d3f 8b59 713f bd54 7a3f 8221 803f
00000130: 15f1 743f 3c8f 823f 6084 833f 8b68 773f
00000140: dd5c 813f 1d1c 803f 461f 763f 6eae 783f
00000150: 7d7e 7b3f 15fe 783f d8d2 743f 3e4b 873f
00000160: e9d9 723f a119 6c3f cf87 843f be44 7c3f
00000170: 77d0 7b3f a817 723f 6686 713f 5b62 7b3f
00000180: 4f23 803f 925a 723f 9752 693f 0000 763f
00000190: b42a 733f 20ec 773f 8f87 6d3f 0eb9 7a3f
000001a0: e51b 7b3f cc65 7d3f 85f0 723f 0d7f 823f
000001b0: 2255 7f3f 561b 793f 3561 773f 431a 823f
000001c0: db22 763f e585 713f 92b6 7d3f 135c 773f
000001d0: 6c5f 763f 89b8 703f 3d20 7d3f 6e64 763f
000001e0: afb1 7b3f 3102 783f 4838 7e3f b2c9 833f
000001f0: daf7 6e3f 52bb 743f a094 813f 695a 713f
0.986402 0.92062163 0.9293351 1.0268975 1.005302 0.998165 0.958426 0.9536023
0.95236343 0.9775421 0.9577996 0.9680308 0.98839504 0.99119323 0.99781644 0.95556813
0.9761132 0.9178851 0.9199847 0.97381175 0.9921193 0.95483553 1.02745 0.980119
0.92935616 0.94509065 0.96346474 0.9793173 0.9915238 0.94967854 0.92880654 0.973095
0.983657 0.98958665 1.0139022 0.96112406 0.9569109 0.9877949 0.9486983 0.9756664
0.9561442 0.9296934 0.92219615 1.0794281 0.96994805 0.96501034 1.0347719 0.9452104
0.9971959 0.9821868 0.9763027 0.9710152 0.9770269 0.950011 0.95565623 0.9696374
0.9678496 0.96879256 1.0237552 0.96821606 0.9587934 1.0425698 0.9590902 0.9771359
0.9789269 0.9924417 0.9838137 1.0060786 0.94762194 1.0466995 0.9563052 0.9475267
0.9902802 0.94277257 0.9778555 1.0010226 0.9568036 1.0199962 1.0274773 0.96643895
1.0106465 1.000858 0.9614147 0.9714116 0.9823988 0.972627 0.9563422 1.0569837
0.94863755 0.92226607 1.0353945 0.9854239 0.9836497 0.94567347 0.943457 0.98196954
1.0010775 0.9466945 0.9114165 0.9609375 0.94987035 0.96844673 0.9278497 0.9793862
0.9808944 0.98983455 0.94898254 1.0195023 0.9973928 0.97307336 0.966327 1.0164264
0.96146935 0.9434493 0.99106705 0.9662487 0.9623935 0.9403158 0.98877317 0.96246994
0.98318 0.96878344 0.9930463 1.0295928 0.9334694 0.9559833 1.0123482 0.9427858

features.6.bias f4 [128]
00000000: 5f14 6abb 90c9 ffbc 1c7d 633c 1611 1dbd
00000010: 406c 1bbc 2206 6ab9 844c 153d db67 1a3d
00000020: ea69 2f3d 8fb0 993c 4c8f e73c 44fe bb3c
00000030: 7bac 8fbc 5a03 df3c 9925 dcbc b60e 203d
00000040: e3fd ac3c 27a4 a63d 3905 6a3d 53c2 da3c
00000050: aedf 883b 184d 13bc b099 19bd a190 323c
00000060: 3690 0cbd 9d1c ac3c 0b98 0a3d 0e4b 353c
00000070: f8bb c7bb fa4a 433d 0c3d babc cdee c63c
00000080: 26e5 b9bb b2ca f139 75d6 09bc ad9f 223d
00000090: d927 a1bc 0227 253d 47c2 503d b4b4 863c
000000a0: 754f a0bc 86c8 113d 0f11 a8bd 211e 5bbd
000000b0: 56e1 02bd df20 16bd 0d23 ef3c 52c5 5f3d
000000c0: 8d1f 7dba 212c 823c c394 5c3c 1d58 c73c
000000d0: 278a 05bd 2f09 3e3c 50c8 8cbd 0aac 963c
000000e0: dfd7 50bc 1dac a03c 6e48 5dbc 3ddd f73c
000000f0: e92f 1b3d 00b9 83bc 7a73 b23c fcc0 9c3c
00000100: 1180 0ebd ef3f 57bd 06c4 9d3c 5fb0 6abc
00000110: 8047 553d f55a 1e3c c5da b8bb 00c2 32bd
00000120: 816a a73b 414e 6f3d 0f5e 903c 43fe 1bbb
00000130: d920 233d 9d64 cfbb 6f89 16bd fe97 db3b
00000140: d4af 82bc 1dc5 773c 97e2 ec3a efb8 bf3c
00000150: bb29 54bd c9e6 d53c a7b9 073d c756 a2bc
00000160: c8d5 96bc 469a 4cbd e612 bb3b 9f50 f1bb
00000170: d8cc f8bc fd40 4c3d 37c8 aa3a 65e7 033c
00000180: 0785 323c 5aa9 603d 1e6f b8bb a706 073d
00000190: 7905 483d a7da 03bc e297 8f3d f496 bd3c
000001a0: 4eff 7a3c ecf2 623b e524 343d a2ac 0fbc
000001b0: 71fd 6cbb dcbf 6c3c d211 873c f87c 033c
000001c0: 0ff8 803a 44e9 2b3d b09c f33c 21e6 e3bc
000001d0: bcc7 043d a677 cc3c c525 463b 7742 0d3d
000001e0: aba3 3a3d c828 033d ae73 90bd 3152 c0bc
000001f0: 1fb4 813d 68d9 773c cffb 623d 092a c23a
-0.0035717709 -0.031224042 0.013884809 -0.038346373 -0.009486258 -0.00022318264 0.036449924 0.0376967
0.042825617 0.018760948 0.028266571 0.022948392 -0.0175383 0.027223278 -0.026873397 0.03907653
0.021117156 0.08136778 0.057133887 0.02670399 0.0041770553 -0.008990549 -0.037500083 0.01089874
-0.034317218 0.021009738 0.033836406 0.011065258 -0.0060954057 0.047678925 -0.022734188 0.024283791
-0.0056730686 0.00046118122 -0.008412947 0.03970306 -0.019672321 0.040320404 0.050966527 0.016443588
-0.019569138 0.035591625 -0.08206379 -0.05349553 -0.03195318 -0.036652442 0.029191518 0.05463154
-0.00096558855 0.015890183 0.013463202 0.024334008 -0.032602455 0.011598869 -0.06874144 0.018392581
-0.01274678 0.01961332 -0.013506038 0.030256862 0.037887488 -0.016079426 0.02178358 0.01913499
-0.034790102 -0.052551206 0.01925851 -0.014324277 0.05207014 0.0096652405 -0.0056413137 -0.043642044
0.005109132 0.058424238 0.017622976 -0.0023802675 0.039826248 -0.0063291327 -0.03675216 0.0067014685
-0.015952982 0.015122679 0.00180729 0.023403613 -0.05179761 0.026111024 0.033136036 -0.01981677
-0.018412486 -0.049951814 0.00570904 -0.007364347 -0.030371115 0.049866665 0.0013029639 0.008050774
0.010895974 0.054849006 -0.0056284806 0.03296533 0.048833344 -0.008047736 0.07011391 0.02314327
0.015319658 0.0034629656 0.043980498 -0.008769186 -0.0036161805 0.01445004 0.01648799 0.0080254
0.0009839552 0.041970506 0.0297378 -0.027819695 0.032417044 0.024959397 0.0030234915 0.034487214
0.045566242 0.032021314 -0.07053314 -0.023476692 0.063331835 0.015127517 0.055415925 0.0014813553

actor.0.weight f4 [64, 128]
00000000: 92ad 973d 5d68 69bd 801f a63c 2673 9e3c
00000010: 0850 2c3d b7c8 5b3d dcf4 b5bc 2b48 ba3c
00000020: 1e70 913d e8c7 983d 2292 c23d 1acc 03bc
00000030: dcba b73c 5ccc 43bd 7bfe 44bd f4b4 66bd
00000040: db00 b7bc 91b7 2c3d a73d 28bd d8fc 983d
00000050: c6fe bc3d bf72 b6bd 3631 5abc f001 34bb
00000060: 3438 f3bc fb07 96bd 5a60 b33d 4a9c 74bd
00000070: 2be9 a93d daeb 53bc ffb0 363d 6652 d4bc
00000080: 16f9 4abc 0acc 8f3d e7c5 f7bc 8ed0 73bd
00000090: 32d1 553d 69dc 213c 371f 8cbc 2806 4dbc
000000a0: df3f ab3d 2f12 0dbd 421c 2dbd de4d e13d
000000b0: c26d c6bc 12ef 09bd c5b9 d6bc 01f8 68bd
000000c0: 706e 833d 7dcf 10bd fe72 cfba e66a 7eba
000000d0: ce48 4abd e7bb 903d 3abf 05bd 4660 3dbd
000000e0: a5f6 0d3c 612b 383d e61c 4d3d f075 d5bb
000000f0: 5e4e 213d d65b 883d 5bd9 493d 6b72 713d
00000100: 944c 15bc 9384 6bbc d394 fcbc e5a7 8c3d
00000110: 9c6c f9bc d530 853c 95e2 aabd 8d61 d5bd
00000120: 57c6 6f3d f92f 403d f26d 403d ec6d 9d3d
00000130: e3f5 183d b314 5a3d 930d 3d3d 0c88 0bbd
00000140: 3fd7 f1bd e032 febc cf2d b73d 09c4 7abd
00000150: bddf f33b 4823 02bc 27ea a73d ba2f 06bd
00000160: f71a 31bb 82cb 1f3d fe27 513d 231c 9bbd
00000170: 513e 1c3d 7c0d 5bbc b430 513d 4418 14bd
00000180: 7d19 f2bc c389 bf3d 4b82 9ebc ffdb 0b3d
00000190: c427 9e3d 8137 903d 4424 19bd 8752 08bd
000001a0: 45b1 b63d cfc5 573c b513 4f3d 812d d3bc
000001b0: 4343 fa3c e3c6 c8b8 6787 5c3d 1f99 f7bb
000001c0: 868f f03b 4436 72bc 7917 663d 8c67 db3d
000001d0: bd84 4bbd d150 21bd 66d5 933c f39e 61bc
000001e0: a8ed 78bc 3144 763d cf95 ba3d 395d ac3d
000001f0: f341 0abc 4524 773d 8f33 4abd e935 e9bb
00000200: c2de 1c3b a78a 22bd a3c8 49bc ac56 f53c
00000210: dacc 0fbd 8d8d 1bbc c3a9 a6bc cf20 44bc
00000220: b7c4 78bb c641 f1bc 29bf 80bc 084b 703b
00000230: d869 843d 225f 22bd a8ae 913d 4d96 5fbd
00000240: d8f5 8cbd f6d5 d43c f386 d0bb f0b1 a33c
00000250: a3dc 193d 3339 2c3d 4e46 303d d578 733d
00000260: 36f1 45bd 98c5 073d 8527 a2bd c701 573d
00000270: ba61 3c3d 7e4b a63d 3443 a33c 62a5 b5bc
00000280: 59c0 c6bc ed95 6bbd ac5f a23d 4213 7ebd
00000290: 11af 42bb d8fe 623d aa37 c6bc a340 903c
000002a0: 22ef 0a3d 2cae 1dbd 56a4 053c ba78 c23d
000002b0: 7c64 07bd 383a e0bc 19b7 023e 47c4 603c
000002c0: 0de7 603d 8244 953d 5c69 613d 8422 07bc
000002d0: 19a9 9cbb fe8d ccbc 50ed 19bd 67c6 473c
000002e0: 676f 633c ccf6 be3d 869c 373d c676 ad3d
000002f0: a42b 773c abe7 123d 479a 583d e533 c1bc
00000300: 4f73 7abd 48b2 a73d 88ce 9fbd 6867 403b
00000310: 83ac 1e3d 7b24 bf3d 64ea 49bc 96fc 3e3d
00000320: 9a88 7abd 7f2a b63a 89b1 843d 1583 f6bc
00000330: bafe a2bd 42df d23d e6f4 cdbd 377f 923d
00000340: 200e d13b 3a4d 753d 7286 ef3c f508 44bc
00000350: 0883 89bd 8bdd 67bd ea4b 78bc 2aac cebd
00000360: d2fa 62bd 5ce4 6dbd 2a79 ac3c 7ab2 1abd
00000370: cd05 473c 3c96 5dbc 2fa8 2d3d 0ea7 9fbc
00000380: 07de 803d 5459 bcbc 033f e2bc 0b3f 183c
00000390: f5f7 ce3c 8d96 8bbd 84cf d8bc 01c2 b43b
000003a0: b067 adbd e812 95bc e657 27bd ae8b 92bd
000003b0: 0df5 9bbd 2752 f93c 2399 98bd 680d b3bd
000003c0: 0eae c03d 6eba 8739 a6e2 4ebd aac5 bf3d
000003d0: e062 9f3c ebf0 51bd 4cc7 6cbd e845 753c
000003e0: 6d68 5abd 1047 96bd 8269 063d c7e7 52bc
000003f0: 7644 103d fc3a b8bc 9886 903d dbd3 b03b
0.07406153 -0.056984294 0.020278692 0.019342016 0.04206851 0.053658213 -0.022211485 0.02273949
0.07101463 0.07460004 0.09500529 -0.008044267 0.022427969 -0.047802314 -0.048094254 -0.056324914
-0.022339275 0.04216725 -0.04107442 0.07470101 0.09228282 -0.08908605 -0.013317397 -0.0027466975
-0.029689886 -0.07325741 0.08758612 -0.05971936 0.082964264 -0.012934649 0.04460239 -0.025918197
-0.012388488 0.07021339 -0.030245734 -0.059525065 0.052201457 0.00987921 -0.017104728 -0.012513675
0.08361792 -0.03444117 -0.042263277 0.1100118 -0.024222258 -0.03367526 -0.026211629 -0.05687714
0.06417549 -0.035354126 -0.0015827117 -0.000970526 -0.04938584 0.070670895 -0.03265307 -0.04623439
0.008664762 0.044963244 0.050076388 -0.0065143034 0.039381377 0.06658141 0.049279552 0.058947008
-0.009112496 -0.01437487 -0.030832684 0.06867961 -0.030447297 0.016258636 -0.08343998 -0.10418997
0.05853876 0.04692075 0.046979852 0.076869816 0.03734387 0.053242397 0.046155524 -0.03406529
-0.11808633 -0.031030118 0.08944284 -0.06122211 0.007442443 -0.007942982 0.08198958 -0.03276036
-0.002702413 0.03901244 0.05106353 -0.07573726 0.038145367 -0.013369914 0.051071838 -0.036155954
-0.02955317 0.09352448 -0.019349238 0.03414535 0.077224284 0.070418365 -0.0373881 -0.03328183
0.0892053 0.01316972 0.050555903 -0.025778534 0.030549651 -9.573789e-05 0.053840067 -0.0075560953
0.007341328 -0.014783446 0.05617473 0.107131094 -0.049687136 -0.039383713 0.018046092 -0.013770807
-0.01519338 0.060123626 0.09110605 0.08416218 -0.008438575 0.060337324 -0.049365576 -0.0071170223
0.0023936485 -0.03968301 -0.012315902 0.029948555 -0.03510747 -0.009494198 -0.02034462 -0.011970713
-0.0037959048 -0.029450309 -0.015716152 0.0036665816 0.064655006 -0.039641507 0.07113391 -0.054586697
-0.068828285 0.02598093 -0.0063637435 0.019982308 0.03756393 0.042046737 0.043035798 0.059441406
-0.04832574 0.033147424 -0.07917694 0.05249193 0.045991637 0.08119868 0.019929506 -0.022173587
-0.02426164 -0.057516027 0.07928404 -0.062030084 -0.0029706398 0.05541882 -0.024196465 0.017608946
0.03391946 -0.03849618 0.0081568565 0.09495683 -0.033054814 -0.02737151 0.12765159 0.013718671
0.054907847 0.072884575 0.05503212 -0.008247975 -0.0047809 -0.02497005 -0.037579834 0.012193299
0.013881541 0.093244165 0.044827007 0.0846992 0.015086088 0.035865467 0.052881505 -0.023584316
-0.061145123 0.08188301 -0.078030646 0.002935851 0.03873874 0.0933313 -0.0123239495 0.046627603
-0.06116543 0.0013898163 0.06479175 -0.030091802 -0.079587415 0.10296489 -0.10056476 0.071531706
0.0063798577 0.059888102 0.029238913 -0.011965026 -0.06714445 -0.056607764 -0.015154818 -0.100914314
-0.055414982 -0.05807911 0.02105387 -0.037767865 0.012147379 -0.013524588 0.04239672 -0.019488838
0.06292348 -0.022991814 -0.027617937 0.009292374 0.02526472 -0.06815825 -0.026466139 0.005516291
-0.084670424 -0.018197492 -0.04085531 -0.07155548 -0.07615099 0.030434681 -0.074510835 -0.087427914
0.09408198 0.00025888107 -0.050509118 0.09363873 0.019456327 -0.051255148 -0.05780725 0.01497028
-0.053322244 -0.07337773 0.032815464 -0.012872643 0.03522154 -0.022489063 0.07056922 0.005396349

actor.0.bias f4 [64]
00000000: 07a2 923c dfec 02bd 3d2c 44bd 39db 89bc
00000010: 269d 153d 040f 0ebc c178 bcbc 0d0d a2bd
00000020: 0b2a 453d 5278 44bc aad9 6b3d e4b5 033d
00000030: 379d 6f3d 35a9 4e3d 456f abbc a246 a7bd
00000040: 2a1d 803b e849 c9bd 3bfd 613a 3ce2 ca3c
00000050: 4628 31bd 4bb7 883c 7fe0 25bd b5e6 443d
00000060: 3e59 913d 305f e2bc 9002 0dbd c5f9 9d3d
00000070: 0740 b73d f3a9 083d 0f2a d2bd 12f0 9c3d
00000080: c7be 3e3b 75d0 ea3c 090e 733d 106b 3abd
00000090: 3f11 9abd d73e a3bd 3abb d5bc d63c c0bd
000000a0: 1a42 25bd a7db 0abd 9dfd 9f3d a03f cc3d
000000b0: 2346 ac3d f023 5b3a 77c0 f33c 30b9 563d
000000c0: 7e5d d0bd 18e4 ca3d 4a8c 32bd 6e1a 6fbd
000000d0: b6fa b53d f48a 8abd f2e8 d0bc b088 bebc
000000e0: 3aca 103d 21bd 2dbc 198c 27bd cc57 3abd
000000f0: da36 d1bd 7583 61bd 8d98 1cbd 8a2c 723c
0.017899526 -0.03196418 -0.04789375 -0.016828166 0.03652682 -0.008670572 -0.023006799 -0.079126455
0.0481358 -0.011991577 0.057580628 0.032155886 0.05849954 0.050454337 -0.02092708 -0.08167769
0.0039097266 -0.098285496 0.0008620803 0.02476608 -0.0432513 0.016688963 -0.0404973 0.048071582
0.070971 -0.02763328 -0.034426272 0.077136554 0.08947759 0.0333652 -0.10261928 0.07662977
0.0029105411 0.028663853 0.059339557 -0.04551226 -0.07522821 -0.0797097 -0.026090253 -0.093866035
-0.040346242 -0.033900883 0.07812045 0.09973073 0.08411815 0.0008359542 0.02975486 0.052422702
-0.10174082 0.09906787 -0.04359082 -0.058374815 0.0888571 -0.067647845 -0.025501702 -0.023258537
0.03534911 -0.010604174 -0.040905092 -0.045493886 -0.1021554 -0.055057008 -0.03823142 0.014781127
